service/models/emotions.pt (torch, 122771 bytes, 10 tensors)

lstm.weight_ih_l0 f4 [128, 128]
00000000: be53 44be 255d 47bd 53b6 bcbd a61d 48bd
00000010: b1a5 23be ac09 4b3d bd70 2dbe 5981 81bc
00000020: 65a2 1e3d 7d71 b6bd fbe0 923d b2ad 803b
00000030: f493 993d 0af2 9d3d 4850 b2bd 419e 8b3d
00000040: 7dfe 84bd d8c3 593d 72a6 b6bd 92e9 a63d
00000050: f825 e53c 9e0b b7bd f31f d6bd 743e 083d
00000060: 4a4f 283e b49c aa3d 7e95 bebc 5374 a3bc
00000070: 5ed8 973d 5139 dabd a58b 953d 3fe2 90bd
00000080: 5c77 b33d a2f5 53bd a247 a83c 6f00 573d
00000090: 6825 f73d 8399 adb9 4f74 293e 8282 14be
000000a0: 8095 0bbd 8c14 34be 4d46 88bc 8db3 aa3c
000000b0: 9535 98bd 1428 583d 130c 06bd a0cc 0abe
000000c0: c3dd 003e 3125 b23d 8325 823d 94b6 fc3d
000000d0: db28 3d3d f998 663d 955a fe3d 02f8 25bd
000000e0: 1224 0fbe 198d ddbd 82e3 41bd b822 28bd
000000f0: 544c e1bc 2da6 823d fba1 0b3d 5df2 fdbd
00000100: 1ca4 7cbd 8ae6 77bd ea76 b23d 04f0 92bd
00000110: f232 bebd e76f 52bd 481c 7dbd 8dad 82bd
00000120: 64be 2dbe e520 0f3e d210 a43d 5f25 b5bd
00000130: 4424 fdbd de12 38bc c164 a43d 4970 0bbe
00000140: 3749 92bd 2f14 733d e81f dcbd a7ab 08bd
00000150: 9ace 16be 0c67 fb3d 9140 a53d df9f 1ebe
00000160: 601b cdbd 2196 4e3d 64a8 923c 5b48 353d
00000170: 1034 0dbe 81a5 abbd cfaf b23d 50ca f1bd
00000180: 4452 c6bc 8476 a13d 1e76 b43d af2e 833c
00000190: f6ff 713d dfc3 bb3d 932a 2abc 61a6 1cbd
000001a0: 262a 0d3e 28fb 283e 6d0c aa3d 9aec 86bd
000001b0: f945 13be a579 2bbe e4c6 a5ba dcc0 84bd
000001c0: a44a 33bd f44c e9bc 8fed 263e 776a 2a3e
000001d0: 6433 03bc fef3 25bd c8d3 be3d b676 16bc
000001e0: 3886 1ebe 1ff6 863d 7270 343e d116 00be
000001f0: 1f82 febc 3276 393d 51c4 00be 9bc4 06be
00000200: 0b3f c13d e9d0 98bc ed1a af3d 860c 0f3c
00000210: 3f3e a83c 27ec 7cbd 5af9 90bc a45a 2e3d
00000220: ee23 1b3d e454 97bb f7b8 013c 14f3 6a3d
00000230: 33ea b4bd 8a6d b23c 0014 01bd 37e5 cfbc
00000240: a654 aa3c ae25 8fbd 095c e9bb e8f3 7b3d
00000250: 7ade 243c 3eec 33bd 4118 32bd ae0f 123d
00000260: 6b6f a73c 7c2a 143d ce14 95bd 283c a03b
00000270: 50b2 783b 245c c63b a66b 913d f17c 2e3d
00000280: 4644 093d 2f13 fe3b 5367 9b3c 161d 7fbc
00000290: 0633 8fbd 633f 82bd 315a 2cbd 894f 4fbd
000002a0: 6b38 b53c 6361 9b3c 7020 70bc 46aa 84bd
000002b0: 5278 4f3d 3726 133d e640 d83c 4c93 833d
000002c0: 44aa 13bd db47 3bbd f275 53bd 27c5 f5bb
000002d0: aa37 6ebd 75e8 3f3d 8305 c33a 96af dc3c
000002e0: 71b2 e1bc 0df0 11bc 802e 95bb ce6f d3bc
000002f0: aff0 4b3d 7c27 b1bc 1297 8e3c 3f16 2dbd
00000300: 7326 30bb 530f 80bc dceb e73c 7f91 683d
00000310: 29c1 613c 85f4 98ba 8f79 25bc 8f53 233d
00000320: 9123 17bc c551 293d df70 c4bc 2c2d 863d
00000330: acd3 a53d 90d3 613d 33f0 253d 384e f43c
00000340: 012a c5bc 54a1 a4b9 587b 983c a785 5dbc
00000350: 8a71 1a3c a499 3f3d 65b3 7ebd fbb4 71bd
00000360: 79f4 0cbd 7910 043c b86e 16bc 4279 7d3c
00000370: 667f 52bc 0fd1 22bd cf89 3a3c c335 483d
00000380: f49f eabc e0ae 8e3d 68bf 963c ab42 af3d
00000390: b35b 6cbd b6a6 68bd 7946 a93c ec91 7ebd
000003a0: 0234 69bd 8e30 103d 8155 e13c f031 9ebd
000003b0: 5ee7 4a3d b275 acbc 7f64 293d 5b39 50bd
000003c0: 18b6 a8bd 88cd 6fbd 734f 90bc 004d adbd
000003d0: 9b60 32bc 6555 39bd e2f0 b4bc 9c0e 35bb
000003e0: 9383 e0b9 5954 b0bd 2290 0d3d a463 5dbd
000003f0: 057e 353d 18f8 a13d a25b 26bd c3c2 f138
-0.1917257 -0.048672814 -0.09214463 -0.0488564 -0.15981175 0.04956977 -0.16937537 -0.015808748
0.03872909 -0.08908365 0.07171818 0.003926956 0.07498923 0.07712181 -0.08706719 0.06817294
-0.06493852 0.053165287 -0.08918466 0.08150019 0.027972206 -0.08937763 -0.104553126 0.033262685
0.16436496 0.0833067 -0.023264643 -0.019952929 0.07414316 -0.106554635 0.07302026 -0.07074403
0.08763 -0.051747926 0.02054197 0.052490648 0.120676816 -0.00033111506 0.16548274 -0.1450291
-0.03407812 -0.17585963 -0.016635085 0.02083757 -0.07432095 0.052772596 -0.03272636 -0.1355462
0.12584595 0.086985 0.06354811 0.123395115 0.04618154 0.05629823 0.12419621 -0.04051972
-0.13978603 -0.10817928 -0.04733611 -0.041048735 -0.027502216 0.06379352 0.034090023 -0.12399743
-0.061679944 -0.060522594 0.08714087 -0.071746856 -0.09287061 -0.05137625 -0.06179455 -0.063807584
-0.1696716 0.13977392 0.08011021 -0.088450186 -0.12360433 -0.011234967 0.0802703 -0.13617052
-0.07142871 0.05934542 -0.10748273 -0.033366825 -0.1472725 0.12275514 0.08068956 -0.15490673
-0.10014987 0.050436143 0.01790256 0.044258457 -0.13789392 -0.08381177 0.08724939 -0.11806166
-0.02420915 0.07883933 0.088115916 0.016013471 0.059081994 0.09168219 -0.010386127 -0.03824461
0.1378561 0.16502059 0.08303151 -0.06588097 -0.14382161 -0.16745622 -0.0012647775 -0.064820975
-0.043772355 -0.028479077 0.16301559 0.16642176 -0.008007858 -0.040515892 0.09317738 -0.009183576
-0.15480888 0.065899126 0.1762102 -0.12508704 -0.031067906 0.045278735 -0.12574889 -0.13160937
0.094358526 -0.018654304 0.085500576 0.008731013 0.020537494 -0.06174865 -0.017697025 0.04256691
0.037876062 -0.004618274 0.007917634 0.057360724 -0.088337325 0.021780748 -0.031513214 -0.025377853
0.020792317 -0.06989609 -0.007121567 0.061511904 0.010062808 -0.04392647 -0.04348016 0.035659485
0.02043887 0.03617333 -0.07279359 0.0048899837 0.003794808 0.0060534645 0.071006104 0.042599622
0.033512376 0.0077537517 0.018970167 -0.0155708995 -0.06992154 -0.06359746 -0.0420782 -0.05061296
0.022121629 0.018967336 -0.014656171 -0.064777896 0.050651856 0.035925116 0.026398133 0.06424579
-0.03605105 -0.045722824 -0.051626153 -0.007500309 -0.058158554 0.046852548 0.0014878962 0.026939195
-0.027550908 -0.00890733 -0.0045526624 -0.025810149 0.04979008 -0.021625273 0.01740602 -0.042257544
-0.0026878386 -0.015632307 0.028310709 0.05677938 0.013778963 -0.0011669552 -0.010099783 0.03987461
-0.009224788 0.041337747 -0.023979602 0.065515846 0.08097014 0.055133402 0.040512275 0.029822454
-0.02406788 -0.00031400716 0.018613502 -0.013520635 0.009426484 0.046777382 -0.062182803 -0.059010487
-0.034412835 0.008060568 -0.009181671 0.015470805 -0.012847757 -0.039750155 0.011385395 0.048879396
-0.028640725 0.069669485 0.018401816 0.08557638 -0.05770464 -0.056799613 0.020663487 -0.06215088
-0.056934364 0.035202555 0.027506592 -0.077243686 0.049537055 -0.021052215 0.041355606 -0.05083595
-0.082378566 -0.05854562 -0.01761601 -0.08461952 -0.01088729 -0.045247454 -0.022087518 -0.0027627116
-0.0004282264 -0.08609838 0.034561284 -0.054050103 0.044309635 0.07908648 -0.04061473 0.00011528053

lstm.weight_hh_l0 f4 [128, 32]
00000000: 13ac 71bc 1ce1 07be 2689 4a3a c3ca 41bc
00000010: 8bb5 7bbd 2224 41bd 2650 373d 1a6a c8bd
00000020: 3922 8bbc e207 a13c d149 98bd de5c 3c3d
00000030: e4ce b0bd d21c 9d3d c57f 94bd a5c0 123d
00000040: 201d 473d e9cf d03c 82c2 2e3d 589b cf3c
00000050: 961d e93d 2965 9bbc e953 ccbb a568 753d
00000060: 0502 ccba 06f9 1ebc e609 eabd 6fe3 bf3d
00000070: b211 d8bd cb37 09be 0c6b 0c3e ccf7 383d
00000080: 102a deba e856 5f3b c3af 3fbb 1c2f 083c
00000090: e2f2 efba 60d4 a739 1dfc bcb9 373c 96b9
000000a0: 99cb d1bb d8e1 94bb d217 20bb 9b50 0f3b
000000b0: 0c27 eb38 8ba4 e4ba d00f 02b9 1107 5dbb
000000c0: 23fe 2fbb b7e5 92ba ff81 963a cb27 fbba
000000d0: f8b5 e23a cb2d 0cbb eb29 24bb 7e79 553a
000000e0: 4c86 903a 100d bf39 5f8c b239 558e 3d3b
000000f0: 2c0b d039 7bb0 41bb 6ffa abba 5934 deba
00000100: 4a38 2bbc 9cc3 21bd 0f75 a33a be6b c1bd
00000110: bc03 ae3d 0b18 27bc 09f2 09bc 0f96 1abd
00000120: 21a8 2abd 24f9 be3d 02c2 cabc 8f77 34bc
00000130: 2065 1dbb 17c6 073d e59b d33b 80b2 8bbc
00000140: ceea 76bb 4a63 643d e58e 0c3c 2745 133d
00000150: 936b 063c 2452 673d 8a9a 97bc 4ea0 c23c
00000160: 255b bdba 98dd edbc a054 02ba 58ea 22bd
00000170: a62a e1bc 7b8a ae3c b520 e03c 22d6 163c
00000180: d3a4 be3d 3ff0 c73d c77a e93d ead8 973d
00000190: 1e53 bcbc fb63 10be 31bd 20be 88ac ef3d
000001a0: a1b2 8f3d 111f 12bd 99c4 dabd 1879 8cbd
000001b0: a8a1 0dbe 006e 813c 46b1 363c 7e5d f7bd
000001c0: ce39 d7bd 2288 14be f128 793d 624f 96bc
000001d0: 59af 39be 6bc3 6dbd 9dd2 833b aaad 703d
000001e0: 17b7 0b3d 5dd6 853b 6912 b73d 8d65 903c
000001f0: 5c70 43bd 1712 023d 93e5 bd3d 17b6 f73c
00000200: 1ed1 333d 70cf ad3d 7c88 48bc 6fdf 6e3d
00000210: a32c dcbd fc7e 21bb 448a 50bd a3e8 053d
00000220: 6e3b edbc ba8d d43d 2cf7 1cbd 1900 50bd
00000230: 12ea 82bc eba8 023a b1b6 d1bc cf71 723c
00000240: f905 c3bc c91f c73d ff15 913d af28 173e
00000250: 38ee 9e3c 2eff 20bd 16ee 0eba 3a2e b93c
00000260: d5ab a83a 5c72 0cbd 2a9e 67bd 4a69 e6bb
00000270: d68f 1e3d f1fc ddbc 86f9 34bd 4f94 96bd
00000280: de3c e4bc 64ad 193d 0bc2 bebb 9e83 aa3d
00000290: 0a3a 59bd 96ff 4b3d 7dbf 963d 0240 cc3d
000002a0: ca06 29bd 8c0b 5b3d ed75 dc3d 7bef bd3d
000002b0: ca48 86bc ed0f e53d c6fe c23c c777 9d3c
000002c0: aa08 973d 6121 72bd b1d9 bd3d 597d cf3c
000002d0: 3455 d93d c471 cd3d 6d99 60bc 59ac f23d
000002e0: 4541 96bb b732 b63c 021d af3d a0ed 843d
000002f0: 0ff8 833c 4522 fd3a 4d63 ed3d f94c e1bd
00000300: db2b 013e c273 1e3e c1f4 273d 69a2 3b3d
00000310: 0b16 bfbd 03cc eb3d 3ed1 153e 8eca ec3d
00000320: 08f9 2f3e 604a bfbd 6008 46bd 1c83 8e3d
00000330: 99e2 c5bc 41ab 5abd eced 35be bab8 bc39
00000340: 6ac3 3b3d 8ff0 b8bc a6a4 013e 4050 e9bc
00000350: 815f cb3d 9737 fb3d d2e0 a23d e29e 2d3d
00000360: 82ff b73d 7be1 b9bd 2d75 00be f5ee efbd
00000370: 34f6 2b3d 680c ed3a 8a82 a23d 8aeb da3c
00000380: 0075 2a3d 9613 d83d 3eba 9f3c 8d4d d6bd
00000390: e8cf 553d 2f66 d3bd 0527 1abe bdcb e23b
000003a0: 4367 94bd f10d 2dbd 1181 4e3d 719b 953d
000003b0: 60ef 4ebd f3c2 08be 084c 01be 2d65 acbd
000003c0: d7ed d73b b0bf fa3d f64b edbd 1db7 543d
000003d0: d826 2abc f607 eb3d fde1 2bbd 63eb 9c3d
000003e0: 585b 523c 8a52 d83d 9f8a 1f3e 5cb8 01be
000003f0: 9b49 0cbe 8d5c fe3a 96e9 5a3d f5a5 18bb
-0.014750498 -0.13269466 0.0007726125 -0.011828127 -0.06145243 -0.0471536 0.04475417 -0.09785862
-0.016984092 0.01965708 -0.07435954 0.045987003 -0.08633211 0.07671513 -0.072509326 0.03582825
0.04861176 0.025489764 0.042665966 0.025342628 0.11382596 -0.018969135 -0.006235589 0.05991425
-0.0015564567 -0.0097029265 -0.11427669 0.093695514 -0.1055025 -0.1340019 0.1371271 0.045158193
-0.0016949791 0.00340789 -0.002924905 0.008312013 -0.0018306638 0.00032010954 -0.00036045993 -0.00028655093
-0.0064024446 -0.0045435242 -0.002442826 0.0021868113 0.00011212946 -0.0017444057 -0.00012403657 -0.0033726136
-0.0026854358 -0.0011207376 0.0011482834 -0.001916164 0.0017296663 -0.00213896 -0.00250494 0.0008143409
0.0011026352 0.0003644009 0.0003405539 0.0028923948 0.00039681175 -0.0029554653 -0.00131209 -0.0016952857
-0.010450432 -0.03949319 0.0012470799 -0.09444378 0.08496806 -0.010198603 -0.008419522 -0.037740763
-0.041664246 0.093248636 -0.024750713 -0.011014833 -0.0024016574 0.033147898 0.006457793 -0.017052889
-0.0037676576 0.055758752 0.008578991 0.03595462 0.008204359 0.05647482 -0.018506307 0.02375808
-0.0014446719 -0.029036328 -0.00049717166 -0.03977427 -0.027486157 0.021306267 0.027359346 0.009206327
0.093087815 0.0976262 0.11400371 0.0741442 -0.022988852 -0.1410064 -0.15697171 0.117028296
0.07016493 -0.03567416 -0.10682029 -0.06859034 -0.13831198 0.015799522 0.011150664 -0.12078379
-0.10509072 -0.14505056 0.06083006 -0.0183484 -0.18133296 -0.058047693 0.00402291 0.05875937
0.034110155 0.004084392 0.08939058 0.017626548 -0.047714576 0.031755533 0.092723034 0.030238194
0.0439006 0.08486831 -0.012239572 0.05831855 -0.10750701 -0.002464234 -0.05091311 0.032692563
-0.028959002 0.10378595 -0.03832166 -0.050781343 -0.015980754 0.0004984277 -0.02559981 0.014797642
-0.023806559 0.097228594 0.070842735 0.14761613 0.0194007 -0.03930586 -0.00054523477 0.02260505
0.0012868593 -0.03428875 -0.05654732 -0.0070315944 0.03871139 -0.02709815 -0.044183277 -0.07352506
-0.027861055 0.037518874 -0.0058214716 0.08325885 -0.053033866 0.049804293 0.07360742 0.09973146
-0.04126624 0.05347781 0.1076468 0.09274193 -0.01639213 0.11184678 0.023803126 0.019222153
0.073746994 -0.059113864 0.09270037 0.025328325 0.10611954 0.10031465 -0.013708455 0.11849279
-0.0045854175 0.02224098 0.08550455 0.06490636 0.016109494 0.0019312581 0.11591206 -0.110010095
0.12614386 0.15473846 0.0410049 0.045809183 -0.09330376 0.115135215 0.14630601 0.11562072
0.17184842 -0.09340358 -0.04834783 0.06958601 -0.024155902 -0.053385977 -0.17766541 0.00035995786
0.04584066 -0.022575645 0.12660465 -0.028480649 0.09930325 0.12266462 0.07953037 0.04238785
0.08984281 -0.0907621 -0.12544699 -0.11715499 0.041982844 0.0018085362 0.079350546 0.026723642
0.041615486 0.10550611 0.019497987 -0.104640104 0.052200228 -0.10322224 -0.15053947 0.00692126
-0.07246258 -0.042249624 0.050416056 0.07305039 -0.050521255 -0.13355617 -0.1262666 -0.08417735
0.006589632 0.12243593 -0.11586754 0.051932443 -0.010385238 0.11476128 -0.041963566 0.07662084
0.012839161 0.10562618 0.15580224 -0.12667984 -0.13699953 0.0019406244 0.05344542 -0.0023292277

lstm.bias_ih_l0 f4 [128]
00000000: fc20 653d c000 9bbc 7f62 d0bd 0bf7 2ebe
00000010: 4d99 1dbe 5063 b0bd d7eb 143e 09e0 0d3e
00000020: 27fb 433b b40a 3dbd 649d bf3d 78a0 04be
00000030: a4dd 6e3d 5d91 c1bd 2db9 cb3b 7fae 27bd
00000040: 4be9 19be 92dc 80bd ff77 5fbd b0bf 7dbc
00000050: 7179 b83d 3048 223d 789d 7e3d 95ed 9f3d
00000060: 03dc 6fbd 380e 15bd f64a f93d 686c 723c
00000070: 48b9 f0bd 355e 0dbe 85b5 24bd 3cc9 7bbd
00000080: 7021 b13d 239a 033d 38b1 c83d ae58 cdbc
00000090: da3b c63d eb0f 3abd dc5f 173e f371 16be
000000a0: 22fc 2a3e 1a48 253e 9253 623d 7644 25bd
000000b0: 2ba1 f4bd 8879 96bd 3fce 0dbe c65f 1d3c
000000c0: f084 b73c 0452 403d b42f a9bd ecca e9bd
000000d0: 74df 90bd ad52 123e 40d2 17bd 5a4d a43d
000000e0: 27a3 563c b2d8 babc 5083 0a3e aae9 d73d
000000f0: 233e 1fbd 3e97 c9bd aa8a afbd 5595 5fbd
00000100: 53a9 323e 307b c3bc 59af 733d 481a bebd
00000110: 6af6 7ebb f7f1 0cbe 5fa6 d5bd 0249 173e
00000120: 73c1 d03d f643 a73d 0cf5 83bc 8a95 163e
00000130: b91f 18be 51a1 6b3c ec43 e13d 5fee 403d
00000140: 9c8d 8abd 273a 39bd cda2 803c e69a 01be
00000150: abbf a23d 8be0 99bd 4153 05ba 90a4 193e
00000160: 99f0 aa3c faaf c53d f012 02be 5e5a 0e39
00000170: e194 92bd db55 fd3d 9191 00bd f5a3 89bd
00000180: 6f7e 0f3e 58f4 143e 961d 163d 4ba0 aebc
00000190: fd82 a6bd b918 d73d 21b8 463d f05d 723d
000001a0: 2422 083e 25da ecbc 20a4 a8bd b3de 01bc
000001b0: 1025 a23d 54cf 86bd 129f ce3d f6b1 f73c
000001c0: 3818 07bd 6d32 76bd b9b9 24bc fb18 3c3d
000001d0: 9b52 523e 7b0c 503d 2419 7c3d 20ae d1bd
000001e0: 9abc 98bd 49a7 f6bc d588 17be 5072 c93c
000001f0: 4280 113e 2091 5cbd b450 c73d 8b15 5c3d
0.05593966 -0.018921256 -0.10175037 -0.17086427 -0.15390511 -0.08612692 0.14543091 0.13854994
0.0029904337 -0.046152785 0.09356192 -0.12951839 0.05831684 -0.09451554 0.006217143 -0.040937897
-0.150304 -0.062920704 -0.054557797 -0.015487596 0.09007538 0.039619625 0.062161893 0.07808987
-0.05855943 -0.036390513 0.12172501 0.014796354 -0.117540896 -0.13805468 -0.040212173 -0.06147121
0.08648956 0.032129418 0.09799427 -0.0250667 0.096793845 -0.045425337 0.14782661 -0.14691906
0.16697744 0.16140786 0.05525548 -0.040348493 -0.11944803 -0.07347399 -0.13848208 0.009605354
0.022402257 0.046953216 -0.08261052 -0.114156574 -0.0707387 0.14289351 -0.037065744 0.08022566
0.013100422 -0.022808407 0.13526654 0.10542615 -0.038877618 -0.098433 -0.0857137 -0.054585773
0.17447405 -0.023862451 0.059493396 -0.092823565 -0.0038904198 -0.13764177 -0.104321234 0.14773944
0.101931475 0.081672594 -0.016108058 0.14705482 -0.14855851 0.014381723 0.10999283 0.04710233
-0.06765291 -0.045221474 0.01570263 -0.12656745 0.07946714 -0.07513531 -0.0005085953 0.15004182
0.020866679 0.096527055 -0.12702537 0.0001357584 -0.07157303 0.12369891 -0.031388823 -0.067207254
0.14013074 0.14546335 0.03664931 -0.021316668 -0.08130453 0.10502762 0.048515443 0.059171617
0.13294274 -0.028912613 -0.08234429 -0.007926631 0.07917225 -0.065825135 0.10088934 0.030236226
-0.03298208 -0.060106684 -0.010054045 0.04592226 0.20539324 0.050793152 0.061547413 -0.1023829
-0.07457848 -0.030109065 -0.14798291 0.024590641 0.14209083 -0.05384934 0.0973219 0.053731482

lstm.bias_hh_l0 f4 [128]
00000000: b32f 92bc 5659 c5bc bab9 84bb 53e0 d63c
00000010: 9131 7dbc 2b7f 013e c09c 14be 5a2b 353c
00000020: fdb2 e83d c6c1 3e3d 29ed 05be f0d1 9a3d
00000030: 95f4 ccbd cb8b 0fbe ede0 b33d 1aa2 97bc
00000040: 0f18 6cbd ab0f 3bbe 40da 063e dfff 78bd
00000050: 5887 243e 073d d63d 79c9 083e ce89 0f3d
00000060: 4b7c 64bc 2100 333c 34c0 fcbc 821d e43d
00000070: a56e 8cbd d266 2e3d 8306 b2bc e8c8 88bd
00000080: 9872 10be 0815 4dbd 4d71 a33d 2f1e ba3d
00000090: 6f0f ffbd 51ed 1fbe 67d6 e23d 4048 b9ba
000000a0: 4ae8 0f3e 6acf e43d ecd1 1ebe ce05 143d
000000b0: 6ab0 ddbc f4eb 2c3d c841 163e 14cf c53d
000000c0: 6864 9fbd 979f a6bc 6c37 833d cad7 c03d
000000d0: 7f81 6e3d 5a49 12bd c515 7c3d 60fe 043e
000000e0: 4105 5e3d e261 dd3b 5c7a 9bbd 58d3 083e
000000f0: b125 ca3d ac2a 57bd 56cb 67bd bf4d de3d
00000100: 143c 423d 8bf8 8d3c d750 86bd 8d7d c2bd
00000110: d850 fd3d c915 e6bd fe83 9f3d 5d72 45bd
00000120: c018 893d 4770 de3d fcda 723c 6984 ae3d
00000130: f5f3 a33d bca1 9ebb 7bc2 21be 47e1 08bd
00000140: ac21 d23d d57b 9d3d 4a6a 9dbc dc98 1bbe
00000150: d3c2 d23d f60a 1fbe e3fb 7dbc 8285 143e
00000160: 406d d33c f9cf 103e a6ac 0c3d e81e b03a
00000170: 477b fc3c 8d6e 01be 7e0a bc3c 051a 87bd
00000180: 3d6a 913c 51b1 d1bd 457b e83d ef6c 99bd
00000190: 2025 1a3e 1ec2 6abd ca67 43bd 2460 bb3b
000001a0: a0ad 04be 8efa 8dbd d966 233e ad5e 0d3e
000001b0: 554c 863d fe0a 073e cf71 f0bc f469 80bd
000001c0: 85c6 26bd 4517 09be 9614 3cbc 2c44 b93c
000001d0: 240a e3bc 2f62 383e 91f1 2f3d a335 bcbd
000001e0: 6cb8 cc3d d3fa ed3d 8cd4 fd3d 73c0 963b
000001f0: bdb6 403c c7d1 023e ddc5 9abc 1930 cb3c
-0.01784501 -0.02409045 -0.0040504606 0.026230013 -0.015453712 0.12646167 -0.1451292 0.011057699
0.11362264 0.046571516 -0.1307875 0.07559574 -0.10007588 -0.1401817 0.087831356 -0.018509913
-0.05764013 -0.18267696 0.13169193 -0.060790893 0.16067255 0.10460859 0.13358106 0.03504353
-0.013945649 0.010925324 -0.030853368 0.11138441 -0.06857041 0.042578526 -0.02173162 -0.06678945
-0.14106214 -0.050068885 0.07980595 0.09087788 -0.124541156 -0.15617873 0.1107605 -0.0014135912
0.14053455 0.111723736 -0.15509766 0.03613835 -0.02706166 0.04221721 0.14673531 0.09658638
-0.07782823 -0.02033977 0.06407055 0.094161585 0.058228966 -0.035714485 0.0615442 0.12987661
0.05420423 0.0067560533 -0.075916976 0.13361871 0.0987047 -0.05253093 -0.0565904 0.10854673
0.047420576 0.017330429 -0.06558388 -0.09496603 0.12368935 -0.11234624 0.077888474 -0.04820477
0.06694174 0.10861259 0.014822718 0.08521349 0.080055155 -0.0048410576 -0.15796845 -0.033417966
0.10260329 0.07689635 -0.019215722 -0.1519503 0.10291066 -0.15531525 -0.015501949 0.14504054
0.02580893 0.14141835 0.034344338 0.0013436945 0.030820502 -0.12639828 0.022954222 -0.0659676
0.017750854 -0.102388985 0.11351637 -0.074914806 0.15053225 -0.05731403 -0.047706403 0.005718248
-0.12956858 -0.06932555 0.15957202 0.13805647 0.06557528 0.13187787 -0.029351143 -0.06270209
-0.040716667 -0.13387783 -0.011479517 0.022615515 -0.027714796 0.18006204 0.042954985 -0.09189918
0.09996113 0.116201065 0.12394056 0.0046005785 0.011762318 0.12775336 -0.018893177 0.024803208

lstm.weight_ih_l1 f4 [128, 32]
00000000: e2ee abbd d809 c13d 0a42 1bbb c682 02bb
00000010: d825 033e 99fa 9dbd 9fa2 ca3d f15b e93b
00000020: a757 f3bc e771 f2bd a76d dd3c da1e 71bd
00000030: a5b9 bb3c 1c94 cb3c 259d b9bd 32a2 3ebd
00000040: 92af e4bc 8af8 3ebd cf31 5cbc 2f18 1c3d
00000050: 69c4 c43a e264 ebbc 0b95 dc3c b861 7a3d
00000060: 2331 b73a 1553 413a 8ca8 d9bc 2a93 453c
00000070: 0a85 d53b eab8 a5bd 015a 06bc f045 973b
00000080: 7896 8dbd 0a5f e13d 6758 68bc 11d8 d8bc
00000090: 5b65 343c f706 7cbd 34ee 78bd b06e 9c3d
000000a0: 6b93 a3bc 77da c0bd d831 c3bc 13d6 9f3d
000000b0: 00bc 223e 6eff 82bd 0cec dcbd 00c9 62bc
000000c0: 998c c33c 8036 eb3b 6b52 733d c0d1 6abd
000000d0: 7f27 da3b b494 05be 1389 6dbd 957e 10be
000000e0: 744b 8d3b 80ee 843d 56fb 95bd 107f 263e
000000f0: 9725 fbbd 22b5 ae3d e28d 06be 1e33 133e
00000100: f5eb 0a3d 512b 943d 7675 d5bd b963 f5bd
00000110: 435c afbc 1b71 c3bd 6965 233e 88d9 d83c
00000120: 5533 f33c e4c1 04be e06c f4bd 1e81 8f3d
00000130: bc18 0d3d dbae 2abd 9d55 9bbd 0602 a1bb
00000140: 56fb ae3b ce3b 1d3c 8d08 ef3d 0f7b 1ebe
00000150: 4d7a 95bc bb23 d3bd 0e5a c43d 2b33 6c3d
00000160: a627 13bc 6dc1 c3bc cb12 d43d 331d db3d
00000170: 711e 923d aff8 49bc 008f 973d c63c 823d
00000180: 075f 3b3c 339a 203d 035c b13c 91d4 a9bd
00000190: 1755 a3bd 9ea8 a93c c22c 1c3d b2c9 273d
000001a0: 7cc3 fdbc 8560 ecbd b4b0 1fbc 5449 b83d
000001b0: c28a 19be aea3 8fbc 2372 cc3d 9899 ffbd
000001c0: adcb e3bd e2de a7bd 71f7 093e aa85 ad3c
000001d0: f48d 13bd 5b3a 6cbd 510c a7bd feeb a4bd
000001e0: 1572 10bd c19d 48bd c5f2 c43c c36d 943c
000001f0: 3123 6ebc c923 163b 51b7 c5bc 0f29 973d
00000200: eb8d d9bd 58a4 883d 7a6e b3bc 0b0e a9bd
00000210: 1736 fe3d e4e3 c33d 27e4 be3d 497a 033e
00000220: 4e9f 193e 1af1 5f3c d204 013e e594 3b3e
00000230: 11e8 7dbb cc33 24be 42af 01be 6f6b 80bd
00000240: e961 c7bd c63d 993d 1296 abbb 09fb b2bd
00000250: 3ceb 1ebd f899 46bc ea14 17bd 04dd a23d
00000260: d268 443b e4d8 abbd aea5 1b3c 2461 693d
00000270: c182 893d 21ba ccbd a47b 1dbe 2aa8 c3bd
00000280: eb3f 893d 8c61 c0bd da7f 96bd 1678 d0bd
00000290: 1b7a a63c 5f8f 033d 3228 9bbd 1960 9ebd
000002a0: 3448 16bd d915 10be f16d a03c c240 50bd
000002b0: 6f33 babd 58b5 7b3d 3360 ffbc e443 103d
000002c0: 2a13 a43d f3b6 c1bc 27ea 393e cb96 01be
000002d0: bb40 e63c 5656 1abe c4fa 203e b402 9e3d
000002e0: 0e41 253b a7fe 6abc 9a7c 97bd eab0 b1bd
000002f0: 49b1 15be 36f3 edbc cde6 443c 4ded e13d
00000300: 720a a93d 7c3b 52bd ec35 bd3d 96e6 f1bd
00000310: ee60 a7bd 01a8 24be 0ace 84bd 7b16 bcbd
00000320: 7a84 163d 9319 c63d c006 d4bd 4710 e0bd
00000330: 79cf 28bd 7b5d 133d c07a 4ebd 286c ebbd
00000340: 96c7 f5bd 12d4 8e3b dc2f 05bd 51cd e43d
00000350: bfb4 9c3d bead 5fbd 3713 53bd ba4a ca3c
00000360: 7db3 683b b18c 493c 3a15 cbbb 06d6 3a3e
00000370: 655a b03d b8a6 973c 8cc2 a7bd 91a9 a33c
00000380: ca8d cc3d 6dbd c43d f7ff e8bc e0d8 dbbd
00000390: 3fc7 04bd d0f6 1cbe 28ee f23d c96e 9e3c
000003a0: 19d2 53bc 9d6c 523d 9725 3ebd 602b 123e
000003b0: 5dec bcbd 1024 823d da14 bfbc d495 a5bd
000003c0: c240 c5bd 8ace 823d 7d19 313e a34f 22be
000003d0: d9a7 0f3e f0e6 8a3d 1ac1 93bb e58a fc3b
000003e0: 08fe fc3a 19e5 363d 4eaf d13c 7e60 283e
000003f0: 1b14 9e3c 4df8 9b3d d707 4fbd 0223 eb3d
-0.08395173 0.09425706 -0.0023690485 -0.0019914373 0.12807405 -0.07713813 0.09894299 0.007121556
-0.029704882 -0.118381314 0.027029825 -0.058867313 0.02291567 0.024850897 -0.09063176 -0.0465414
-0.02791575 -0.046623744 -0.01343961 0.038109 0.0015012148 -0.028734628 0.026926538 0.061128348
0.0013976436 0.0007374746 -0.026569627 0.012059012 0.0065161036 -0.0809191 -0.00820017 0.0046164915
-0.06913465 0.110044554 -0.014181233 -0.026470216 0.011010493 -0.06153008 -0.060774043 0.076382995
-0.019967755 -0.09416669 -0.023827478 0.07804503 0.15892029 -0.063963756 -0.1078721 -0.013841867
0.023870753 0.0071781278 0.05940477 -0.05732894 0.0066575403 -0.13045007 -0.057992052 -0.14110787
0.004311973 0.06490803 -0.07323329 0.16259408 -0.12263029 0.08530642 -0.13140061 0.14374968
0.033916432 0.072348244 -0.104227945 -0.11981911 -0.021406299 -0.095430575 0.15956654 0.026470914
0.029687563 -0.12964588 -0.11934829 0.07007049 0.034447417 -0.04167066 -0.07584689 -0.0049135713
0.00534002 0.009596778 0.11671553 -0.1547663 -0.018246794 -0.103095494 0.09587489 0.057665985
-0.008981621 -0.023895944 0.10355147 0.10698929 0.071347125 -0.012327357 0.07400322 0.06359248
0.0114362305 0.039209556 0.02165032 -0.08292497 -0.07975214 0.020710286 0.038128622 0.040963836
-0.030977003 -0.11541847 -0.009746719 0.08998361 -0.14994338 -0.017534103 0.09982707 -0.124804676
-0.111228324 -0.081968084 0.13473298 0.0211819 -0.03602405 -0.05767284 -0.08156646 -0.080528244
-0.035265047 -0.04897857 0.024041543 0.018118745 -0.0145347575 0.0022909513 -0.024135264 0.07380878
-0.10622772 0.06671971 -0.021903265 -0.082546316 0.124126606 0.09564951 0.0932086 0.12839617
0.15002176 0.013668323 0.12599495 0.18318518 -0.0038743059 -0.16035384 -0.12664512 -0.06270491
-0.09735472 0.074824855 -0.0052363956 -0.087392874 -0.038798556 -0.01212167 -0.03688518 0.07952312
0.0029969704 -0.08390978 0.00949995 0.056977406 0.067143925 -0.09996439 -0.15379196 -0.09553559
0.067016445 -0.093936056 -0.073486045 -0.101791546 0.020321896 0.03211915 -0.07576026 -0.07733173
-0.036689952 -0.14070834 0.019583674 -0.050843008 -0.090918414 0.06145224 -0.031173801 0.035220996
0.08011468 -0.023646807 0.18155728 -0.12655179 0.028107038 -0.15071997 0.1572066 0.07715359
0.0025215778 -0.01434294 -0.07396813 -0.08676322 -0.1461841 -0.029046636 0.012017918 0.1103159
0.082539454 -0.05132626 0.092388004 -0.11811559 -0.08172785 -0.16079713 -0.06484611 -0.09183975
0.036747433 0.09672847 -0.1035285 -0.10940605 -0.041213486 0.03597782 -0.050410032 -0.114952385
-0.120009586 0.004358777 -0.032516345 0.111719735 0.07651662 -0.054609053 -0.051531997 0.024693836
0.0035507374 0.01230161 -0.0061975988 0.18245706 0.086109914 0.018512115 -0.08191404 0.019978317
0.099879816 0.096064426 -0.028442366 -0.10734725 -0.03241658 -0.15328526 0.11861831 0.019339936
-0.012928509 0.051373113 -0.046422567 0.14274359 -0.0922477 0.063545346 -0.023325372 -0.08085218
-0.09631492 0.063870504 0.1729488 -0.15850691 0.14028873 0.06782329 -0.0045091035 0.007706987
0.0019301781 0.04465208 0.025596287 0.16443059 0.019296696 0.07615719 -0.050544586 0.114812866

lstm.weight_hh_l1 f4 [128, 32]
00000000: 8310 023e 64d8 333b 98f8 2cbd 02fe b13c
00000010: ebd9 88bc 6275 943c 8bc9 31bc 7d20 cbbd
00000020: 1102 adbc 94f0 833d b909 a43b 354f ff3c
00000030: 4eb3 6e3c a757 84bd deb9 2cbd 8b04 873c
00000040: 234a 0b3c b9aa bbbd b81b edbd 43db fbbd
00000050: d601 803c a053 493b 6f0e 4f3d dd07 54bd
00000060: 82d2 f7bd 33b2 b1bd 465b 94bb a8e4 853c
00000070: 3703 4f3d 7ad3 09be 933e cfba 9fab 09bd
00000080: b285 5ebd 5f8e f13d 8aa7 48bd 7776 533d
00000090: f447 aabd 5aa0 ac3d 3cb8 03bb 66de 1dbd
000000a0: d5ac 21bd 2d26 7dbc 2e19 b03d d24e 813d
000000b0: e59e e3bc bfc1 76bc 154a 853d ed5f e1bd
000000c0: 8473 b638 e1f2 fcbd c075 06be 5460 3f3d
000000d0: c80b a23d d454 94bd 8ea0 7e3b db7c 303c
000000e0: 25eb ea3c eed7 c73c a789 183c 29a8 343e
000000f0: fdb3 433e 183c 673c 5385 bdbd a26f 113d
00000100: e6f1 903d 8cee 63bd 5826 163e ac57 ce3c
00000110: 1564 61bd 50ff 11bd c41d 72bc a1cc 4a3d
00000120: 81f1 4cbc 4218 02bd ad52 ea3d 17ab be3d
00000130: 3b76 713d e804 e4bd 704e 833d 5643 7fbd
00000140: bb40 64bd 7a97 23be fa9c 18be 8604 9a3c
00000150: bd05 abbb 1174 0c3d b610 3d3d 3f4d b5bd
00000160: 81c4 b5bd e9fd c9ba 157b eabd bf0c 0d3e
00000170: 6529 163e a2bf 77bc 55b7 ef3d ce31 6ebd
00000180: 93a3 403e c6d8 9fbd debe babb 05bf 6a3c
00000190: 80cb 35bc a5fa 8ebd eb36 863c fc10 50be
000001a0: e3c8 9cbd 5669 edbc 3b39 0f3e 9330 ea3c
000001b0: d3e7 083e 1b14 673d da69 c7bd 0708 ccbd
000001c0: 24b1 823c 8dad 07be e2ce d1bd ba3b 6ebd
000001d0: 74e4 aa3d 383b 49bd ebbb 753d 78f7 83bc
000001e0: ecee 69bd cefc 86bd 1876 38be 55a1 203d
000001f0: 02be 223e 757e 19bd dfe3 753d fa4b 4f3c
00000200: 9614 c73c f747 dfbd 9259 89bc 0742 973d
00000210: 7740 723d 9d7e b33c a230 15be 609b 34be
00000220: 51b2 a73c 1ab2 0b3e 8546 e1bd 293c aebd
00000230: 28ee 0c3e 3c55 02be cc1d 8abd c60a 34be
00000240: 7fb5 e23d 9658 ba3d af44 e53d ddfd 7abd
00000250: 2862 b93d 447c 77bc 78ee c8bc 0316 333b
00000260: 51a2 cbbb 321f ea3c e6e6 5a3d 13b8 a13d
00000270: e06c b5bd edf2 6cbc 9902 9fbd e176 f53d
00000280: 8f69 063b 8a94 73bd 3431 223d ac38 963c
00000290: 60f9 063e 6567 75bd 4036 d0bd ac9e 203d
000002a0: 1c03 793d ed7b 0d3e fbb8 a83d 3cc4 8d3d
000002b0: 9330 c8bc 9dd0 0ebc 31f4 ca3d 3c11 873d
000002c0: 2aad 33bc 02d1 c53c 96fa 02be 7b18 703d
000002d0: 227e c13d 4850 09be 4d01 83bd 3704 eebc
000002e0: b4ba edbd 5017 02be dec9 47bd 4d7e 5dbd
000002f0: 659e a23d ba4d c83d 5866 b0bc 3e6f d23c
00000300: a995 cf3d 3c1e 973d 9dbc 153d 5173 023d
00000310: 6aed fa3d 914f 5abd 9a9e 71bd ba27 9cbd
00000320: bd9f 803d f2b0 073e a587 07bc 028e 333e
00000330: a1be 443d bfac 273d 9010 c0bd 9073 d63d
00000340: 1330 58bd f617 d43d f144 a53c d267 c2bd
00000350: 16a0 95bd 3cf2 e2bd 7ff0 e4bd b775 babd
00000360: 3bba 433d 10ca 123d 97aa b2bd 3821 0a3e
00000370: 1ef3 a6bd 8bc0 0ebc e701 4bbd 71ff 11be
00000380: a802 683b 61d3 a0bd e2af 6b3d a659 993c
00000390: 1137 2d3d f8f6 1bbc bb74 743d bc6f 45bd
000003a0: 1cab 8cbc be11 423d 0c12 d8bd 63fe 8dbc
000003b0: 871d 91bd 0dc8 cebc ce2c 953d 8525 8e3d
000003c0: afb7 6a3c f809 603d 7e69 223d d719 f8bd
000003d0: 63c5 38bd a510 eb3c 72e1 4b3d 0c53 743d
000003e0: 48e6 ac3d 3604 a0bd 2670 2abe c2b6 1d3e
000003f0: a858 6a3d 0a9a 853d 33fd 343e 486c d53d
0.12701611 0.0027442211 -0.042229265 0.021727566 -0.016705474 0.018122379 -0.010851274 -0.09918306
-0.02111915 0.06442371 0.005006042 0.031165699 0.014569117 -0.06462031 -0.042169444 0.016481658
0.008501562 -0.09163422 -0.115775526 -0.1229768 0.015625875 0.003072001 0.050550874 -0.05176531
-0.12100698 -0.08676567 -0.004527482 0.016344383 0.050540175 -0.13459578 -0.0015811495 -0.033610936
-0.05432672 0.11794733 -0.048987903 0.05162665 -0.08314505 0.08429022 -0.0020098826 -0.038542174
-0.039471466 -0.015450996 0.08598553 0.06313862 -0.027785728 -0.015060841 0.06508271 -0.110046245
8.699953e-05 -0.12351013 -0.13130856 0.046722725 0.07912403 -0.07242742 0.0038853022 0.010771955
0.028676579 0.024394955 0.009310163 0.17642273 0.19111629 0.014113449 -0.09253945 0.035506852
0.070773885 -0.055647418 0.14663064 0.02518829 -0.055027086 -0.035643876 -0.0147776045 0.049511556
-0.012508751 -0.031761415 0.114415504 0.093099765 0.058950644 -0.11133748 0.06411445 -0.062320076
-0.055725794 -0.15975752 -0.14903632 0.018800985 -0.00521919 0.034290377 0.046158515 -0.08852624
-0.08875371 -0.0015410754 -0.11449257 0.13774393 0.14664228 -0.015121372 0.1170489 -0.058152966
0.18812399 -0.07805018 -0.0056990227 0.014327769 -0.011095881 -0.069814004 0.016383609 -0.20318979
-0.076555036 -0.028980892 0.13986675 0.028587615 0.13369684 0.05641566 -0.097369865 -0.099624686
0.015953608 -0.13249798 -0.10244538 -0.05816243 0.08344355 -0.04912874 0.059993666 -0.016109213
-0.05711262 -0.065911874 -0.18013799 0.03921636 0.15892795 -0.037474114 0.060031768 0.012652392
0.024301808 -0.10902398 -0.016766343 0.073856406 0.05914351 0.02191096 -0.14569333 -0.17637396
0.02047077 0.13642159 -0.10999779 -0.085075684 0.13762724 -0.12727827 -0.067439646 -0.17582235
0.11069774 0.09098928 0.11194741 -0.06127726 0.09051925 -0.015105311 -0.024527773 0.0027326352
-0.006214418 0.028579328 0.05344286 0.078964375 -0.08858657 -0.014462215 -0.07764167 0.11985565
0.0020509695 -0.05946783 0.039597705 0.01833757 0.13181067 -0.059913058 -0.10166597 0.03921382
0.06079398 0.13816805 0.08238407 0.06922194 -0.024437224 -0.0087167295 0.09909857 0.06595084
-0.0109665785 0.024147514 -0.12790903 0.058617096 0.09447886 -0.13409531 -0.063967325 -0.029054744
-0.116078764 -0.12704206 -0.0487765 -0.054075528 0.079403676 0.0978045 -0.021533176 0.02568781
0.10135967 0.073788136 0.03655683 0.031848256 0.122523144 -0.053298537 -0.058989145 -0.07624765
0.06280468 0.13251093 -0.008272086 0.1753464 0.04803336 0.040936228 -0.09378159 0.104712605
-0.052780222 0.10356133 0.020174475 -0.094924584 -0.073059246 -0.11081359 -0.111786835 -0.091044836
0.047785025 0.035837233 -0.08723944 0.13489234 -0.0815184 -0.008712898 -0.04956236 -0.142576
0.0035401974 -0.07852817 0.05754078 0.018719506 0.042288844 -0.009519331 0.059681635 -0.04820226
-0.017171435 0.0473802 -0.10550317 -0.017333215 -0.0708571 -0.025241876 0.072839364 0.0694075
0.01432602 0.054697007 0.039651386 -0.121143036 -0.045110118 0.02869446 0.04977555 0.059649512
0.0844236 -0.07813303 -0.16644344 0.15401748 0.057213455 0.06523521 0.17674713 0.10421044

lstm.bias_ih_l1 f4 [128]
00000000: eae6 0e3e 3af3 b23c c9ab 453e 5635 9dbd
00000010: db49 d53d ce21 dd3d 52f9 153e 32d8 9abc
00000020: 252e 8b3c e520 79bd da00 cd3d 453f 11bc
00000030: e6bd ae3d 94a7 72bd c308 073e 39e0 a63d
00000040: 82fe ac3d 419c bd3d 9848 41bd dae5 183e
00000050: 2375 a9bd 2361 92bd 5ab0 053e 7e75 1c3e
00000060: ae8a 4fbd df1d 493d f4f2 a4bc d9c3 093c
00000070: 775c 0a3e 01d1 1d3d afa6 a7bd eaa9 033c
00000080: 81dd ddba 46ec 65bd 5daa 323e 6cde 443b
00000090: d610 d0bd 9506 563e ad4e 0b3e 2741 b13d
000000a0: 2479 993d 99d0 8a3c ae6c ecbb 598c a1bd
000000b0: 5be4 693e af45 db3d 9a52 5b3b e5d3 bc3d
000000c0: 0ab5 9abd 9ba8 423e 5e07 b53d a52f 9cbd
000000d0: 6808 663d 6093 4b3e b80f 073e 0811 e53d
000000e0: f7e5 bf3d 8ba5 a43b 7099 003e 2ec3 283e
000000f0: 6fb2 afbd f98c 1f3e 3fc8 eebd 1aad 213e
00000100: 7ba1 553e f92c 873d 0cae 7a3d 50cd d4bd
00000110: a992 efbd 6c7a 34be 620f 1cbe 7bba a3bd
00000120: 0d84 d53d ccfc 063e 48ad 9a3d c87f c1bd
00000130: 8288 12be 712c febd ccaf 973d 32f8 27be
00000140: d243 32bc f9f5 17be 8a9e 0a3e 79f0 173e
00000150: 1411 7dbb 96a0 89bc c3dd 1a3e fba9 adbd
00000160: 2690 39be c868 eb3c 8b69 b0bd 7085 a2bc
00000170: 276d 3a3e 1b24 86bd 2077 9b3d 5318 41bc
00000180: 4ff9 bd3d a740 283e 02d3 5c3e 1120 9ebc
00000190: 6b07 f43d 1615 be3d 66ad 38bd f43a d7bb
000001a0: 6664 d1bd 034c 323d 17dc 913e b56e 993d
000001b0: 0603 523e 2868 a33d ee29 803d fd1f 8c3c
000001c0: 81ee 013e 08c1 253e 5047 4c3e 6cbe aa3d
000001d0: 067c 453e 436d 6b3e 63ae 313d 736e f63d
000001e0: 9bf5 563e a831 4d3e d8b3 0d3d bf01 283e
000001f0: 3dd3 aa3d 7d88 613e 44cd 233d b7dd 853e
0.13955274 0.021844495 0.19303812 -0.07676189 0.104144774 0.10797463 0.1464589 -0.018901918
0.016989777 -0.060822386 0.10009928 -0.008865182 0.08532314 -0.059241846 0.13186936 0.08148236
0.08446981 0.09258319 -0.04718837 0.14931431 -0.08274295 -0.071474336 0.13055554 0.15279195
-0.050669365 0.049100753 -0.02013538 0.00840851 0.13511835 0.0385294 -0.08186089 0.008036116
-0.0016926975 -0.05613353 0.17447801 0.00300398 -0.10159461 0.20900948 0.13604231 0.08655005
0.07493809 0.01694517 -0.007215104 -0.07888097 0.22841017 0.107066505 0.0033465982 0.09220103
-0.07554062 0.1900963 0.08839296 -0.07626275 0.05616036 0.19880438 0.1318959 0.11184889
0.09370034 0.005024617 0.12558532 0.16480705 -0.085789554 0.1558112 -0.11659288 0.1578869
0.20862381 0.06600375 0.06120114 -0.10390723 -0.11697895 -0.17624825 -0.15240243 -0.07994553
0.10425577 0.13182372 0.07552582 -0.094482005 -0.14309886 -0.1241082 0.074065775 -0.16403273
-0.010880427 -0.14839925 0.1353704 0.14837827 -0.0038614916 -0.016800206 0.15123658 -0.08479687
-0.18121395 0.028736487 -0.08613881 -0.019839019 0.18205701 -0.06549855 0.07591081 -0.0117855845
0.092760675 0.16430913 0.21564868 -0.0193024 0.11915477 0.092813656 -0.04508724 -0.006568307
-0.102242276 0.04352952 0.28488228 0.07491819 0.20508966 0.079788506 0.062579975 0.017105097
0.12688638 0.16186917 0.19949079 0.08337101 0.19285592 0.22990899 0.0433792 0.12032785
0.20992129 0.20038474 0.03459534 0.16406916 0.08341072 0.22024722 0.03999068 0.26145718

lstm.bias_hh_l1 f4 [128]
00000000: 35b7 093e 798f 153e 3dee dc3d daff 883d
00000010: e8de d93d cd27 593e cd0d 523e 7272 843d
00000020: b055 273e b44a 0ebd d69e 5dbd fc69 20bc
00000030: ae0c fd3d 70b8 0abe 9b05 983d 6560 183e
00000040: 8020 bc3d da6f 03bd 4821 bf3d 3df6 9e3d
00000050: e8f2 9b3d 4c23 f03c 1ff3 ec3c 1566 1b3e
00000060: 34d5 2b3e 3975 0c3e fcdc 94bc e98c be3d
00000070: db73 ee3b 03ee cdbc 6180 02bd 4a43 01bc
00000080: 32d6 9c3d 4f28 573e afe3 163e 2031 d93c
00000090: 5e85 a1bd b8c3 5cbd a76e c63d 9a0e 9b3d
000000a0: d3ed 513e a7da 73bd 808f 0d3e 9d1e f63d
000000b0: 55c8 5fbd 20ab d8bd 879c 513e e061 483e
000000c0: ad31 64bd 0359 e33d 4f31 cb3c c9fb 843d
000000d0: 357c 1d3e 42fa 653d 440c ac3d 58c2 043d
000000e0: 963b 3cbd 4840 af3a 9acd 46bd 7a55 4c3e
000000f0: 7c96 09bd e6d0 543e 976c 0c3e aca4 3b3c
00000100: 0027 7bbc e263 3e3d 5e12 2e3e bac2 733c
00000110: fb06 3e3c 1648 34be 5737 e93c 3dca 5cbc
00000120: 2c31 4fbe da32 553b be20 05be 128f da3d
00000130: e60c c23d 7949 74bd 1b32 6abc 6495 95bd
00000140: eddd 9cbd 15f4 32bd 6229 ec3c df20 28be
00000150: a17b ccbd 0b9c 873d 202d a9bd 765a dfbd
00000160: 4c49 6f3d 6faf 913c 681e 06be 55ac 893d
00000170: b473 aabd 7f8b 79bd 22e0 f23d bd25 b73d
00000180: 0942 30bd 523c f0bc f38a 203e 0fca b43d
00000190: 7172 333e d9f1 173b a4c0 cd3d eb43 5e3e
000001a0: f4a1 b1bc fa49 babd 349e 633e a40c cd3d
000001b0: f75d 123e 1acd 8ebd e76f 9f3c b3fb 273d
000001c0: a14d 4d3c fd26 8f3e fc12 7d3e b448 6c3e
000001d0: 494b ec3c a6de 283e ee8e 803e 33be 49bd
000001e0: cea7 3e3e ed90 5e3e f07a 673e a4ef 5b3e
000001f0: a86f d83d 5db6 263d 9dbe e93d fc11 173e
0.13448794 0.14605512 0.10787628 0.06689425 0.10638219 0.21206589 0.20513077 0.06467141
0.16341281 -0.03473921 -0.054106556 -0.009790894 0.12355934 -0.1354692 0.07422944 0.14880522
0.091858864 -0.03208909 0.0933252 0.0776181 0.0761469 0.029313706 0.028924523 0.1517566
0.1678055 0.13716592 -0.01817178 0.0930422 0.0072769946 -0.025137907 -0.031860713 -0.007889578
0.07658042 0.2101147 0.14735292 0.026512682 -0.07886766 -0.05389759 0.09689074 0.075711444
0.20500879 -0.059534695 0.13824272 0.12017558 -0.05463441 -0.105795145 0.20469867 0.19568586
-0.055711437 0.11100962 0.024803786 0.06493337 0.15379412 0.056146868 0.08400777 0.032411903
-0.045955263 0.0013370598 -0.04853592 0.19954482 -0.03359078 0.20782813 0.13713299 0.011452835
-0.015329123 0.046481974 0.16999194 0.014877969 0.011598344 -0.17605624 0.02846877 -0.013475952
-0.20233601 0.003253153 -0.13000771 0.1067182 0.094751164 -0.05964038 -0.014294173 -0.073038846
-0.076595165 -0.043689806 0.028828327 -0.1641879 -0.09984518 0.0662156 -0.0826056 -0.10905926
0.05841951 0.017783849 -0.13097537 0.06722323 -0.0832285 -0.06092405 0.11859156 0.08942745
-0.043031726 -0.029325638 0.15678005 0.08827602 0.17524125 0.0023184924 0.10046509 0.21705596
-0.02168367 -0.09096141 0.22228318 0.10012177 0.14293657 -0.06972714 0.019462539 0.041011523
0.012530715 0.27959433 0.24714273 0.23074609 0.028844493 0.16491184 0.25109047 -0.049253654
0.186187 0.21734972 0.2260549 0.21478134 0.10568172 0.04070126 0.1141331 0.14752954

output.weight f4 [19, 32]
00000000: 400b 3cbe f042 ccbd ea5e 04be a429 71be
00000010: 04fd 52be 9caa caba d887 2b3e b1a8 b5bd
00000020: 75b6 963c bdd0 29be 417f 6dbe 17ca b5be
00000030: 1a0a 973e 45d6 d63d 43f1 a73e 2d47 92bd
00000040: 4030 c1bd 39e0 a9bd 61dc d73e 1454 fdbd
00000050: bdce e1bd 825b 24be 56eb 74be c346 91be
00000060: 278e 12be 3dd5 233e f890 64be 8ec9 80be
00000070: 4d45 b8be f64c a8bd 523d 7ebd a3dc c03e
00000080: 7bc9 a0bd d737 6abd dc5e 6abd 62c5 54be
00000090: 113d 29be 48e9 3e3e bc51 9a3d 333d 2b3e
000000a0: 304f 5c3e af03 4abe 351a 7c3e 7f28 723d
000000b0: 55cb a53d 0b1e 763e 401f 24bd e6a0 04be
000000c0: abfe febc 0c6c bcbd 255e 1e3e 4c22 163e
000000d0: 627e f8bc 5cc8 ef3d fd42 933e d5ed 2d3e
000000e0: 89ed 2f3e 8bcb 00bd 2b85 f53c 9475 c33d
000000f0: fc9b 843d 3aa4 353e 1b52 d8bd 3d94 95bd
00000100: fca1 02be d237 e93d f705 233e f9f5 f9bb
00000110: d4d4 fa3c dfc9 60be aa14 e3bd e776 d0ba
00000120: 77f2 56bd 6a45 473e 4ad8 373e 47dd 24be
00000130: acaa 443e 1494 50be b284 823d b6a3 f43e
00000140: d7ed 07be 913e cf3e 77f9 0bbe 1532 883e
00000150: fb6e b83d 37c8 e73c 5dd8 cbbc 356e 14be
00000160: 15af 79bd c664 203e e541 1b3e 6a64 123d
00000170: ec72 183e 0778 9f3e 5fb7 c23d f26a fdbb
00000180: 2070 f7bd 154e c33c aaa5 8f3d 0a78 d0bd
00000190: deb1 d03d 2968 993d 9bcf 1a3d c7f4 283e
000001a0: db3c 693e 84d4 06be 4072 e33d 3637 c0bb
000001b0: 0c05 09be 28e1 673d 039a 5cbd d543 69bd
000001c0: f6f3 de3d a46b e0bd bdd3 1a3e 1b98 373e
000001d0: ca9d 883d 4c65 9c3d d759 813e d1ea 01be
000001e0: 067c 2e3d 469c 493e 2ac2 843e 6269 0dbd
000001f0: 5793 3cbe 48ea d43d 5281 93bd 60ac 6b3e
00000200: acd4 72be e874 523d 58e5 78be 35a9 80bc
00000210: 1768 95bb 0bc3 d03c 9e4d 343e e1cd 1ebd
00000220: 6afd 08bc e702 0dbc 4099 e13d 5d03 593e
00000230: efc4 01be e653 3a3e 4332 0a3e a824 a53c
00000240: 7aac 8ebc a913 02bd 8fd9 443e 17ea 49be
00000250: c0cc c4bd 84d8 0fbd 7e9b 27be 98f2 14be
00000260: e161 213e a4ad 03bd 884a 573e 0038 68be
00000270: b23d 663d cb50 4f3e ab2f 97bd f626 eb3d
00000280: dc39 10be eff6 66bd 19cf 4b3d 9ea5 e83b
00000290: 4468 9ebd b3ce b4bd 51a3 333e c5f6 4e3e
000002a0: ab73 063e b72f ccbd ffb6 073e b145 b93d
000002b0: 2489 84be b604 443e 7197 09bd dd75 1ebe
000002c0: 481d ef3b 547a 673d f7ea 7f3e 8084 c1bd
000002d0: cff4 29be edad d0bd bfd0 a5bd 29a6 d73b
000002e0: 53fd 06bd 2991 7c3d b883 063e 5d4e b7bd
000002f0: dc66 80bd d7b1 c83b 2ff5 34be a397 e6bd
00000300: f2d8 743d 6339 f23d 199a 87be af2d a1bd
00000310: 65cc 40be 894a e23d 3d29 a93e 1060 ec3d
00000320: 519f c23c 17ed 41be 5b75 2cbd 6f54 7bbe
00000330: 34d0 fdbd d05e 873c e177 42bd 7952 46be
00000340: 5c09 83be 65d1 c53c 0385 953e 58f7 7c3d
00000350: 30de acbb 4aa3 e03d 9c1f 19be 425a 8fbd
00000360: 3f1e 18bd f160 23bd 8783 593d 89d9 4cbd
00000370: bba6 28be 2725 25be de56 263e 8d41 4dbc
00000380: 0f3a 74be 3eca d1bd 05f9 f5bc 0906 7b3d
00000390: 9347 06bd 848f bb3d a6df 253e f35b 303e
000003a0: 72cd 51bd d049 e23d 269c 36bd 05c5 bb3d
000003b0: 7572 f0bd 5588 f43d 5cd5 1c3e 1083 373d
000003c0: 9af5 05be 6b7f 6f3d 7963 083d d553 c03d
000003d0: 6eaa f33d e2b2 ed3d 2de6 70bd ea6a fc3b
000003e0: 0746 ef3d 9147 01be a5be 47bc b787 0d3e
000003f0: 7f27 17bd 9d34 203e 4ecd 823d 68c4 8e3d
-0.18363667 -0.09973705 -0.12926832 -0.23551041 -0.2060433 -0.0015462223 0.16751039 -0.08870066
0.01839755 -0.16583534 -0.23193075 -0.35505745 0.29499894 0.104900874 0.32801256 -0.07142482
-0.09433031 -0.0829472 0.42160323 -0.12369552 -0.1102576 -0.16050532 -0.23917899 -0.283743
-0.1431204 0.15999313 -0.22320926 -0.25153774 -0.35990372 -0.08217804 -0.0620702 0.37668332
-0.07850929 -0.05718216 -0.05721937 -0.2077842 -0.16527201 0.18643677 0.07535121 0.16722564
0.21514583 -0.19727968 0.24619372 0.05912065 0.08095423 0.24034898 -0.040068865 -0.12952003
-0.031127295 -0.09200296 0.15465601 0.1466152 -0.030333702 0.117081374 0.28762046 0.16985257
0.17180456 -0.031444114 0.029970726 0.095439106 0.06475064 0.17738429 -0.105625354 -0.07303665
-0.12757105 0.113876 0.15920244 -0.007628199 0.030619062 -0.21952008 -0.11087926 -0.0015904576
-0.052477326 0.19460073 0.17953601 -0.16100036 0.19205731 -0.20368987 0.06372966 0.47781152
-0.13274322 0.40477422 -0.13669382 0.2660071 0.09005543 0.028293712 -0.024883443 -0.14495166
-0.060957987 0.15663442 0.15161856 0.035740294 0.14887589 0.3114626 0.095076315 -0.007733696
-0.12081933 0.023840943 0.0701402 -0.10179146 0.101901755 0.0749057 0.037795644 0.16499625
0.22777121 -0.13167006 0.11105776 -0.0058659567 -0.13380831 0.05661121 -0.053857815 -0.056949455
0.108863756 -0.10958031 0.15119834 0.17929117 0.06670721 0.07636508 0.25263855 -0.12687232
0.042598747 0.1968852 0.25929385 -0.03452433 -0.1841558 0.10396248 -0.072024 0.23014975
-0.2371394 0.05138102 -0.24306238 -0.015705684 -0.0045595276 0.025483629 0.17607734 -0.03877056
-0.0083612 -0.008606649 0.11015558 0.21192689 -0.1267278 0.18196067 0.13495736 0.02015908
-0.017416228 -0.03175703 0.19223617 -0.19718204 -0.096093655 -0.035118595 -0.1636791 -0.14545667
0.15759994 -0.03214802 0.21024525 -0.22677612 0.05621118 0.20245664 -0.07382139 0.114820406
-0.14084572 -0.056387838 0.04975805 0.007099821 -0.07734731 -0.08828487 0.17542769 0.20211323
0.13130061 -0.099700384 0.13253401 0.09046496 -0.2588588 0.19142422 -0.03359169 -0.15474649
0.007297192 0.056513146 0.24991976 -0.094491005 -0.16597293 -0.10189424 -0.08096456 0.006581087
-0.032956433 0.061661873 0.13136184 -0.089504935 -0.06269619 0.006124716 -0.17671655 -0.11259391
0.059777208 0.11827352 -0.26484755 -0.078700416 -0.1882797 0.11049373 0.33039275 0.1154176
0.023757609 -0.18938099 -0.042104106 -0.24543928 -0.12393227 0.016524702 -0.047477607 -0.19367398
-0.25593078 0.024147699 0.29203042 0.061759323 -0.0052755103 0.10968645 -0.14953464 -0.06999637
-0.03713822 -0.039887372 0.05310395 -0.050012145 -0.16469853 -0.16127454 0.16244075 -0.012527836
-0.23850273 -0.10243653 -0.030025968 0.061285052 -0.032783102 0.09158233 0.16198596 0.17222576
-0.05122132 0.11049235 -0.04458251 0.09168438 -0.11740581 0.11940066 0.15315765 0.044802725
-0.13081971 0.058471125 0.03329799 0.0939099 0.11897741 0.11606385 -0.058813263 0.007703175
0.116832785 -0.12624957 -0.012191449 0.13821302 -0.0369029 0.1564507 0.06386815 0.06971055

output.bias f4 [19]
00000000: 9f2e fa3d 3eb6 90bc 99d9 13be a657 293d
00000010: ba74 033d c443 5fbe 6e91 d0bc ac68 68be
00000020: 5a96 44bd cb39 97bd 44df 0d3e 1742 953d
00000030: c93d 953d 28f0 fbbd 95fc 5dbd c4fa 06be
00000040: 4a56 213e 41ed 153e 0f9b 23be
0.122159235 -0.017665025 -0.14438476 0.041343354 0.03209374 -0.21803194 -0.025459971 -0.22696179
-0.04799495 -0.0738407 0.138547 0.07287996 0.07287175 -0.123016655 -0.05419596 -0.13181597
0.15755573 0.14641286 -0.15977119
