service/models/keywords.pt (torch, 161787 bytes, 14 tensors)

lstm.weight_ih_l0 f4 [128, 128]
000000 8a 6d 07 3b f8 04 b5 3b 03 f2 df 3b 85 78 9f 3b
       0.0020664656 0.005524274 0.00683427 0.004866662
000010 6c f9 84 3b 9f 1f 81 3b 1a ce 9d 3b 37 7a a9 3b
       0.0040580537 0.003940537 0.004815829 0.00517204
000020 7e 48 97 3b 71 4f 8f 3b 50 29 b9 3b 44 80 46 3b
       0.004616796 0.004373484 0.005650677 0.0030288855
000030 cc 97 58 3b 4d a8 61 39 a3 45 2e 3b 7d a4 4f 3b
       0.0033049462 0.00021520369 0.00265918 0.0031683736
000040 64 12 3c 3b 9b bb 62 3b af 92 7e ba fc c9 3c 3b
       0.0028697485 0.0034596685 -0.00097111886 0.0028806916
000050 24 65 0f 3b e6 3a 93 3a ac 09 98 3a 70 96 f6 3a
       0.0021880353 0.0011232763 0.0011599562 0.0018813144
000060 3d 5b 09 3b ce 8e a8 3a bc 27 c3 3a 8f a4 53 3b
       0.0020958923 0.0012859942 0.0014889161 0.003229413
000070 71 50 d6 3a d0 43 97 3a d2 b0 05 3a d5 c1 11 3a
       0.0016350878 0.0011540595 0.00050998956 0.0005560194
000080 82 bf 60 3a 69 91 3d 39 74 a2 9c 39 fe 81 42 3a
       0.0008573459 0.00018078614 0.00029875676 0.0007419883
000090 c8 af 96 3a d7 25 57 3b b3 54 3b 3a 1d 4b fb 39
       0.0011496479 0.003282895 0.0007146105 0.00047930414
0000a0 80 6f b6 39 83 e8 61 3b a6 42 11 3a 32 8c ed ba
       0.0003479682 0.0034470863 0.00055412424 -0.0018123446
0000b0 c7 43 4a 3a b5 fa 54 3a 31 3a 7e bb 00 bb e4 38
       0.0007715788 0.00081245165 -0.003879201 0.00010906719
0000c0 15 46 1b 39 e7 d5 90 b9 58 1b 98 39 81 a0 b0 39
       0.0001480806 -0.0002762519 0.00029012072 0.0003368892
0000d0 23 cd 64 3a db 3f 6e 3a e3 ea 4c 3a 18 40 63 3a
       0.00087280775 0.00090884947 0.0007816983 0.00086689135
0000e0 b0 fd 79 3a ed f4 e1 39 c2 51 a9 39 68 fd 8d 39
       0.00095363986 0.00043097828 0.00032295106 0.00027082418
0000f0 38 f3 c8 38 c1 58 c9 39 9a d4 b9 39 53 9f 07 3a
       9.582046e-05 0.00038403834 0.0003544435 0.00051735825
000100 ce 37 a5 b8 0f e3 44 3a ba 8d 6b ba 1b 21 1a 3a
       -7.8782075e-05 0.0007510641 -0.00089856575 0.0005879567
000110 6c c7 fc 39 bc 06 68 38 6d e7 e8 b8 e9 6f 8d 38
       0.00048213766 5.5319382e-05 -0.000111057285 6.744249e-05
000120 ce 0d e4 3b bc 9a a7 b7 9b 8c ae 38 44 f3 45 39
       0.0069596535 -1.9980005e-05 8.323156e-05 0.00018878008
000130 6c 12 22 b8 f6 af 2d ba cd cd a1 b9 1e c6 92 b9
       -3.8640967e-05 -0.00066256465 -0.00030861647 -0.000279949
000140 b4 a4 16 3b 5c 02 00 ba 28 27 15 ba e1 d5 67 ba
       0.0022986354 -0.0004883164 -0.00056897337 -0.0008843821
000150 2a 1c 35 ba 1c 7e b8 3a 9e c0 2f ba 43 ff ea b9
       -0.0006908799 0.001407567 -0.00067044224 -0.00044822143
000160 9c bd 9c ba bd 5a db ba a3 a5 1f bb 28 83 65 3a
       -0.0011958363 -0.0016735416 -0.0024360202 0.00087552005
000170 3b 8e 3e 3b 0f 63 cf ba 52 b4 d0 ba a1 09 10 bb
       0.0029076475 -0.0015822368 -0.001592288 -0.0021978396
000180 66 ab 06 bb 4d 06 01 bb 19 96 03 bb c5 42 66 3b
       -0.0020548939 -0.0019687593 -0.002007848 0.0035135013
000190 ad 90 f3 ba 34 2c 3b ba cc 07 0f bb 3b 67 0a bb
       -0.0018582545 -0.00071400707 -0.0021824716 -0.002111866
0001a0 51 ba fe ba ef b4 03 bb 1a dd 11 bb 7e 0a 1b bb
       -0.0019434189 -0.0020096858 -0.002225703 -0.0023657377
0001b0 aa 3d 8e 39 90 4e 07 bb 25 67 16 bb 96 bf 31 3a
       0.00027130294 -0.0020646192 -0.0022949663 0.00067805627
0001c0 bb 2c 49 bb 0c a9 43 bb 3b 7b 4c bb 21 cd 60 bb
       -0.0030696827 -0.0029855398 -0.003120138 -0.0034301954
0001d0 f3 07 5b bb 0e 02 e5 bb 96 50 b1 bb f6 44 86 bb
       -0.0033421486 -0.0069887703 -0.005411218 -0.0040975763
0001e0 7a a4 84 bb e7 32 01 bc 94 0d 90 bb 52 e7 9a bb
       -0.0040479274 -0.007885671 -0.00439615 -0.0047272826
0001f0 84 b0 a2 bb 0b 0f d4 bb 87 8f fb bb c0 74 5f bc
       -0.00496489 -0.00647152 -0.007677022 -0.013638675
000200 ab dc 80 3b 26 0c ba 3b cb b8 c8 3b 78 72 9c 3b
       0.0039325557 0.0056777177 0.0061255447 0.004774388
000210 66 82 90 3b 8b 19 89 3b 9a e8 99 3b 00 54 97 3b
       0.004410076 0.004183953 0.0046969177 0.004618168
000220 ae 9b 8d 3b b3 01 b4 3a 24 a7 62 3b 48 1a c9 3b
       0.004321537 0.0013733417 0.0034584487 0.006137166
000230 10 f6 5c 3b 11 f2 34 3b 31 b4 49 3b 37 d5 48 3b
       0.0033716 0.0027610103 0.0030777568 0.0030644664
000240 8a 2b 2e 3b ef e7 3c 3b 78 0d 36 3b 07 7c 05 3b
       0.0026576244 0.0028824767 0.0027779024 0.0020368116
000250 95 92 08 3b a0 af d1 3a 39 67 9b 3a 28 ff aa 3b
       0.0020839323 0.0015997775 0.0011856324 0.0052184053
000260 87 f6 00 3b 78 c1 9c 3a fb b3 b8 3a ef 0a 18 3b
       0.0019678192 0.0011959514 0.0014091724 0.0023199876
000270 cd d7 fb 3a 2a 94 a7 3a 93 b6 2a 3a 96 52 75 3a
       0.0019214094 0.0012785245 0.0006512191 0.00093583146
000280 c6 4d 6e 3a 6d 5b 30 39 8f 44 89 39 ec 0b 79 3a
       0.00090905686 0.00016818727 0.00026181756 0.00095003727
000290 28 44 94 3a 94 97 a3 3a 28 9e 36 3a 4c 87 78 39
       0.0011311816 0.0012481087 0.0006966316 0.00023701525
0002a0 4a 1a 78 39 fb e1 9b ba 5b d9 e4 39 a1 20 56 3b
       0.00023660916 -0.0011892909 0.0004364949 0.0032673257
0002b0 d5 21 32 3a a6 c3 29 3a a2 ed 52 3a a3 d1 5b ba
       0.00067952025 0.0006475992 0.00080462743 -0.00083854253
0002c0 f5 0b 09 b9 f9 8c f4 b8 4b b8 29 39 3e e5 33 bb
       -0.00013069792 -0.00011661085 0.0001618575 -0.0027449871
0002d0 8a c7 b3 3a af 35 57 3a 31 00 db 39 e8 8e 33 3a
       0.0013716083 0.00082095986 0.00041771078 0.0006849603
0002e0 3a 3d 1b 3a 99 b0 ec 39 31 ed 68 39 ea 31 96 39
       0.0005921904 0.00045145003 0.00022213605 0.00028647418
0002f0 bc 2b 27 bb 6d 7d a4 b7 08 1b 8e 39 8c 4a 04 3a
       -0.0025508245 -1.960873e-05 0.0002710449 0.0005046509
000300 cd ef d2 38 0e a9 d4 b9 0f 7e 0d 38 17 d6 2a 3a
       0.00010058247 -0.00040561747 3.373442e-05 0.0006516887
000310 7b 33 28 3a 66 54 4d 39 2b 7e 09 39 be 38 9e 3a
       0.00064163626 0.00019581764 0.0001311234 0.0012071354
000320 c0 91 a3 39 10 79 ea b8 55 06 2a b8 76 03 ee 38
       0.00031198375 -0.00011180539 -4.0537056e-05 0.00011349369
000330 7e 98 3a 38 41 c2 ae b9 98 13 75 b9 1a 4a 4c 3b
       4.4487875e-05 -0.00033332597 -0.0002337232 0.0031172098
000340 7a 7b dc b9 1e cc ca ba 92 8e 94 ba f5 3d 1e ba
       -0.00042053667 -0.0015472209 -0.0011333993 -0.0006036454
000350 c3 39 3c ba 59 2c d4 b9 a8 85 c8 b9 fc 2f c6 b9
       -0.0007180238 -0.00040468833 -0.00038246554 -0.00037801254
000360 25 13 5c ba d5 78 c7 ba 5f 35 d5 ba 8b f6 ad ba
       -0.0008395187 -0.0015218506 -0.0016266516 -0.0013272328
000370 7a 04 bb ba 42 f1 ca ba 94 fb d9 ba 05 cc 0d bb
       -0.0014268302 -0.0015483277 -0.0016630762 -0.0021636498
000380 77 f3 06 bb e6 9a 5c bb 07 c7 0a bb 1f 23 01 bb
       -0.0020591894 -0.0033661663 -0.0021175758 -0.0019704772
000390 38 9a 04 bb e4 d1 a6 ba e2 6b 19 bb a3 c2 17 bb
       -0.0020233523 -0.0012727347 -0.002341025 -0.0023156784
0003a0 b7 44 0d bb d6 9e 0f bb 18 d1 1d bb 17 30 25 bb
       -0.002155585 -0.0021914742 -0.0024080928 -0.0025205666
0003b0 eb 6d 8f ba 82 f1 14 bb c7 3d 25 bb 1e ea 3a bb
       -0.0010942792 -0.0022726958 -0.0025213824 -0.0028520892
0003c0 f2 2d 4d bb 2d d6 47 bb 6a ab 51 bb 18 33 5c bb
       -0.0031307903 -0.003049265 -0.003199304 -0.003359979
0003d0 7d 74 5f bb d7 20 63 bb f3 17 71 bb d9 e3 7d bb
       -0.0034096532 -0.0034657025 -0.0036787956 -0.0038740544
0003e0 c2 fb 83 bb 25 de 87 bb 08 15 b0 bb 42 c0 96 bb
       -0.0040278146 -0.0041463547 -0.005373601 -0.0046005556
0003f0 1b 56 a5 bb 61 00 b8 bb 55 57 04 bc cf 24 79 bc
       -0.005045665 -0.0056152795 -0.008077462 -0.01520653

lstm.weight_hh_l0 f4 [128, 32]
000000 30 d0 b3 3a f0 cb 8a ba e9 de af ba 55 0a ac ba
       0.0013718661 -0.0010589343 -0.0013417873 -0.0013125638
000010 1a 5b 97 3a 6c 2e 9c ba 0e e7 a2 ba 5e a7 98 ba
       0.0011547536 -0.001191569 -0.0012428479 -0.0011646559
000020 99 10 a4 ba d2 84 a0 ba 83 17 99 ba 15 d4 5b 3b
       -0.0012517154 -0.0012246615 -0.0011679981 0.0033543159
000030 3a 5e b0 3a 31 9e 9a ba c7 77 32 3b 85 63 c5 3a
       0.0013455816 -0.0011796412 0.0027232037 0.0015059566
000040 f1 05 0d 3b 6e be 01 bb 42 cf 0d bb b9 57 94 3a
       0.0021518434 -0.0019797343 -0.0021638428 0.0011317647
000050 b1 20 97 3a 2f db 96 ba 8e b3 99 3a c0 74 b6 ba
       0.0011530129 -0.0011509414 0.0011726485 -0.0013920292
000060 a7 4f a5 3a df b1 08 3b ce f7 99 ba 77 65 9a 3a
       0.0012612239 0.0020857973 -0.0011746825 0.0011779506
000070 a1 7d 91 ba 38 a9 a7 3a 9c 19 89 bb 13 8b 9c ba
       -0.0011100062 0.001279152 -0.004183961 -0.0011943303
000080 f3 0e 9f 3a cd 22 a1 ba a2 27 a4 ba 42 5c a8 ba
       0.0012135193 -0.0012293697 -0.0012524019 -0.0012844878
000090 3a a7 9a 3a 99 65 93 ba d5 6f 9b ba 0d b3 9a ba
       0.0011799105 -0.0011245488 -0.001185889 -0.0011802629
0000a0 6d 57 a3 ba b8 b2 9c ba 73 11 a2 ba 62 32 a7 3a
       -0.0012461968 -0.0011955118 -0.0012364819 0.0012756104
0000b0 81 00 be 3a 64 35 94 bb 1d dd 9a 3a 3b 24 9e 3a
       0.0014496 -0.004522966 0.0011815164 0.0012065241
0000c0 4f ac 1c ba f7 c7 a0 3a eb 7b a8 ba 6b 1f cd 3a
       -0.0005976604 0.0012266625 -0.0012854313 0.0015649622
0000d0 09 ec 93 3a 55 7d 98 ba d4 47 a2 3a 2f 8f a1 ba
       0.0011285554 -0.0011634032 0.0012381026 -0.0012325997
0000e0 9a 3f 97 3a 4a 74 a4 ba 90 36 b4 ba a2 0f 99 3a
       0.001153934 -0.0012546864 -0.0013749171 0.0011677633
0000f0 2b 98 a8 ba b4 8e a7 3a 14 49 9a ba 75 b4 c9 ba
       -0.0012862732 0.0012783618 -0.0011771047 -0.0015388863
000100 18 46 c1 3a 92 aa b2 ba d2 65 c7 ba 8b 7c ba ba
       0.0014745621 -0.0013631156 -0.001521284 -0.001422779
000110 65 75 ad 3a 84 04 b3 ba e7 ad c1 ba c7 a7 b1 ba
       0.0013233839 -0.0013657962 -0.0014776558 -0.001355403
000120 ce 0d b7 ba 0b b5 b4 ba cd 89 c0 ba 7e ef ae 3a
       -0.0013965906 -0.0013786865 -0.0014689505 0.0013346521
000130 ab fe bf 3a 3b 2d b7 ba da 5d bb 3a a3 22 c7 3a
       0.001464804 -0.0013975272 0.0014294938 0.0015192818
000140 bf 99 d2 3a f6 f1 8d 3a f1 7b b8 ba 2f b6 ac 3a
       0.0016067548 0.0010829556 -0.0014075023 0.0013176854
000150 e8 b3 ad 3a 5d e3 e0 ba 24 8e 23 3a 02 56 b5 ba
       0.0013252469 -0.0017157603 0.0006239137 -0.0013834836
000160 e9 a5 b7 3a fd 75 b8 ba 96 d5 4e bb 47 76 ae 3a
       0.0014011237 -0.0014073249 -0.0031560413 0.0013310396
000170 10 5c 55 b9 c8 9e b6 3a 85 e7 5a ba 1b a5 bc ba
       -0.00020347559 0.0013932819 -0.0008350539 -0.0014392467
000180 6a 5b bd 3a 86 72 b0 ba 5d 8d ba ba 86 6f aa ba
       0.0014446799 -0.0013461865 -0.0014232803 -0.0013003207
000190 6a bf a0 3a 39 a1 cc ba 69 9c cc ba 9e 16 a4 ba
       0.0012264077 -0.0015612013 -0.0015610579 -0.0012518947
0001a0 94 1d a2 ba a0 c0 a9 ba f7 a9 d4 ba fe c3 a2 3a
       -0.0012368434 -0.0012951083 -0.001622497 0.0012418029
0001b0 65 5d ad 3a 09 bb ad ba e5 84 a4 3a e7 c0 b1 3a
       0.0013226686 -0.0013254593 0.0012551813 0.0013561518
0001c0 aa 2a b9 3a 91 f8 44 3b e8 81 b6 ba 89 1f a0 3a
       0.0014127095 0.0030055384 -0.0013924213 0.001221643
0001d0 0b 6a b2 3a 51 b7 d2 ba a6 cc ad 3a d1 d3 a7 ba
       0.0013611926 -0.0016076361 0.0013259843 -0.0012804215
0001e0 f7 4b a4 3a 51 6c b2 ba ea ef a7 ba 49 97 12 3b
       0.0012534846 -0.0013612603 -0.0012812589 0.0022368005
0001f0 80 7e a6 ba d1 bc b4 3a c0 8f ad ba a5 b0 e6 ba
       -0.0012702495 0.0013789182 -0.0013241693 -0.0017600252
000200 b3 80 b4 3a 80 cc 9e ba 2c e1 b1 ba c2 6a 88 bb
       0.0013771266 -0.0012115389 -0.0013571135 -0.004163117
000210 14 d4 a2 3a 8b cc 78 ba 7c 63 a9 ba 3a a5 20 ba
       0.0012422823 -0.00094909285 -0.0012923325 -0.00061281363
000220 61 2b a9 ba 00 82 70 bb fc a3 a5 ba 11 61 47 3b
       -0.0012906605 -0.003669858 -0.0012637372 0.0030422846
000230 6d bc b3 3a d7 b6 a2 ba e7 b2 c1 3a b1 33 ae 3a
       0.0013712771 -0.001241411 0.0014778048 0.0013290552
000240 18 97 13 bb 4e 6c 97 3a b6 4a c4 ba 85 6f a4 3a
       -0.0022520479 0.0011552663 -0.0014975879 0.0012545442
000250 3a e4 9e 3a c6 e1 a9 ba e8 c1 b2 3a a4 7c a6 ba
       0.001212246 -0.0012960962 0.0013638111 -0.0012701941
000260 0c 88 a5 3a 3a 89 69 ba 2e f3 a3 ba b5 9e a3 3a
       0.0012629046 -0.0008908693 -0.0012508386 0.0012483211
000270 4e 5b ec ba db 24 ad 3a a9 70 ab ba 1c c6 77 bb
       -0.0018032582 0.0013209836 -0.001307984 -0.0037807291
000280 b5 70 a9 3a 24 d2 91 ba 5c d3 ec ba a3 93 99 ba
       0.0012927266 -0.0011125249 -0.0018068361 -0.0011716973
000290 25 59 90 3a 1b 0d 89 bb a7 78 9f ba 43 20 bd b9
       0.0011012895 -0.0041824705 -0.0012166695 -0.00036072926
0002a0 36 02 96 ba 71 8a 9d ba e4 44 99 ba ef e1 92 3a
       -0.0011444751 -0.0012019408 -0.0011693505 0.001120625
0002b0 d5 96 97 ba 88 a2 a5 ba 45 ae 96 3a ca df a7 3a
       -0.0011565337 -0.0012636939 0.0011496028 0.0012807783
0002c0 56 95 aa 3a cf db 97 3a 80 6f a4 ba 54 05 a1 3a
       0.0013014476 0.0011585894 -0.0012545437 0.0012284913
0002d0 b1 1e 95 3a 23 cd 96 ba 46 23 9d 3a 02 2b a5 ba
       0.0011376945 -0.0011505227 0.0011988662 -0.0012601318
0002e0 3d 31 84 3b 66 cd 99 ba 24 5e a7 ba 1e b8 aa 3a
       0.00403419 -0.0011734187 -0.0012769145 0.0013024842
0002f0 b4 7d a7 ba 70 e6 9c 3a f9 81 9e ba 86 0f aa ba
       -0.0012778551 0.0011970531 -0.0012093178 -0.0012974597
000300 75 f8 ac 3a 4f 9e 93 ba 19 cb ad ba 65 00 45 bb
       0.0013196605 -0.001126239 -0.001325938 -0.003006005
000310 15 73 a0 3a 1b 0f c1 ba ed 64 21 bb 88 07 9b ba
       0.0012241328 -0.0014729233 -0.0024626807 -0.0011827806
000320 aa 4f ae ba 21 22 a0 ba 82 b9 9c ba 53 75 85 3b
       -0.0013298888 -0.0012217202 -0.0011957141 0.004072824
000330 d8 ec 9f 3a 2a 12 9c ba 35 51 9e 3a 4c 3d 04 3a
       0.0012201322 -0.0011907269 0.0012078645 0.00050445343
000340 82 cc 17 3b 09 95 8f 3a 1c ee a1 ba 35 04 9f 3a
       0.0023162668 0.001095445 -0.0012354287 0.0012131991
000350 1c 0e 99 3a 6d b3 9a ba 31 9b 9d 3a 22 e2 8f ba
       0.0011677179 -0.0011802741 0.00120244 -0.0010977427
000360 8d ea a2 3a de 2a 86 ba db 51 9c ba 11 d3 9c 3a
       0.0012429521 -0.0010236164 -0.001192625 0.0011964758
000370 2c c3 97 ba 1f 53 37 3b d8 53 a7 ba 21 d1 a8 ba
       -0.0011578551 0.0027973128 -0.0012766076 -0.0012879708
000380 d5 64 b0 3a 5e 25 a0 ba 06 2c ac ba 4a b0 a3 ba
       0.0013457785 -0.0012218168 -0.0013135679 -0.0012488451
000390 61 81 fb 3a 46 f2 9e ba 43 06 a8 ba f0 c6 a7 ba
       0.0019188338 -0.0012126646 -0.0012819249 -0.0012800377
0003a0 b1 73 a1 ba 8d fb a5 ba b6 10 a6 ba 29 38 a1 3a
       -0.0012317804 -0.0012663469 -0.0012669775 0.0012300062
0003b0 ff 0e aa 3a b7 ad a2 ba eb 6e a5 3a 3a b9 91 3b
       0.001297444 -0.001241139 0.0012621557 0.0044471296
0003c0 b5 64 86 3b bf 31 a1 3a ca 6b aa ba 21 ea a3 3a
       0.0041013607 0.0012298151 -0.0013002094 0.0012505689
0003d0 6a 5d 9f 3a 86 ff 6f ba 82 62 a7 3a 9c 0b ab ba
       0.0012158577 -0.00091552024 0.0012770446 -0.0013049725
0003e0 af bd a4 3a bb b0 a6 ba 0b 6a af 39 aa 9d a2 3a
       0.0012568737 -0.0012717465 0.0003345761 0.0012406607
0003f0 62 20 a5 ba 29 96 a9 3a 95 0b a9 ba 5a 5b aa ba
       -0.0012598152 0.0012938428 -0.0012897128 -0.0012997196

lstm.bias_ih_l0 f4 [128]
000000 fb f1 35 3b 71 81 ce 3a 5d 5f 32 3b c7 96 16 3b
       0.002776264 0.0015755129 0.0027217485 0.0022978054
000010 4b 48 20 3b d3 4d 27 3b d5 7d 81 3b be f6 52 3b
       0.0024457152 0.0025528565 0.003951768 0.0032190527
000020 03 fc 0c 3b f2 a1 1e 3b 78 0d 04 3b 3e e9 01 3b
       0.0021512515 0.0024205414 0.002014963 0.001982286
000030 0d 58 3a 3b 08 00 84 3b 21 4c 10 3b a2 fd 31 3b
       0.002843383 0.004028324 0.0022018033 0.0027159234
000040 1d b6 31 3b 9d 5c ca 3a 80 3f 25 3b ae 0c 15 3b
       0.0027116605 0.0015438978 0.002521485 0.0022743153
000050 0c 97 1f 3b 3b 65 13 3b a1 62 09 3b 81 d6 14 3b
       0.0024351506 0.0022490758 0.0020963328 0.0022710862
000060 8e d5 12 3b 6e 2d 24 3b e1 51 1b 3b c3 cb 1b 3b
       0.002240512 0.0025051492 0.0023699927 0.0023772574
000070 f7 cd f7 3a 6a 6d 70 39 d9 84 32 3b e9 04 fe 3a
       0.0018905987 0.00022928944 0.0027239828 0.0019380125
000080 06 06 9c 3b 5a 6b 69 3b 9b 3c 51 3b 58 01 8b 3b
       0.0047614602 0.0035616965 0.0031926993 0.0042421035
000090 02 82 8a 3b 8b 4a 8e 3b 39 a5 8d 3b d1 df 83 3b
       0.004226924 0.0043423823 0.0043226746 0.0040244837
0000a0 e4 de 82 3b 2e b9 8a 3b 20 0e b1 3b 08 7e 9a 3b
       0.003993856 0.004233501 0.005403295 0.004714731
0000b0 a3 41 9b 3b be 7e 97 3b 02 74 8a 3b c3 5f 8d 3b
       0.004738049 0.004623263 0.004225255 0.004314394
0000c0 92 fb 93 3b 7b f1 7e 3b e2 f1 8e 3b 1f e3 84 3b
       0.0045160735 0.0038901258 0.004362331 0.0040553953
0000d0 8f 62 87 3b 1f 67 80 3b b5 87 70 3b cc 54 90 3b
       0.004131622 0.003918543 0.0036701981 0.00440464
0000e0 c4 c1 8f 3b a8 cf 8c 3b f0 0b c4 3b ea ed 89 3b
       0.0043871123 0.0042972155 0.0059828684 0.00420927
0000f0 69 d0 7c 3b 8d 32 2d 3a f1 50 93 3b 27 8a 82 3b
       0.003857637 0.0006606959 0.004495733 0.003983754
000100 9e 02 ee 3c e8 4b a6 3c 12 ab da 3c c3 60 5b bc
       0.029053982 0.020299867 0.0266929 -0.013389769
000110 28 1d a9 3b 1b 9f dc bb be 37 2b bd 42 dc 29 bc
       0.0051609464 -0.006732834 -0.041801207 -0.010367455
000120 bc e9 3a bb 3c e3 3f bc d4 9d f9 3c 91 b5 53 39
       -0.0028520664 -0.011711892 0.030470766 0.00020190167
000130 05 53 69 3d 57 ae 64 bd 14 ba 32 3c 60 99 6a 3d
       0.05696394 -0.055830326 0.010908622 0.057275176
000140 2e 99 b9 3c b5 b6 1b 3c 90 7a c6 bc 2b d1 1e 3c
       0.02265605 0.00950401 -0.024228364 0.009693424
000150 f4 cb a8 3c 2a b4 0f bc b5 3d 52 bb c2 88 25 bc
       0.020605065 -0.008770982 -0.0032080237 -0.010103406
000160 66 b7 b0 3c 35 9a 51 bc ca d4 04 bc d4 29 f3 bc
       0.021571826 -0.0127931135 -0.0081073735 -0.029683031
000170 8e 1f 12 3d 9b 5a ac 3c 05 bf 29 3c 8f 6c 89 3c
       0.035674624 0.021039298 0.010360484 0.016775398
000180 ad be d5 3b f3 cf 02 3b b8 9c 71 3b 57 7a b5 3b
       0.0065229745 0.0019960373 0.0036867093 0.0055382657
000190 5f 6d a7 3b ea 81 b8 3b 15 be ba 3b 78 7c f6 3b
       0.0051094736 0.0056307213 0.005698929 0.007522162
0001a0 30 73 aa 3b ed 55 b0 3b 69 c3 a8 3b 18 4a af 3b
       0.0052017197 0.005381337 0.005150248 0.005349409
0001b0 8c d9 c3 3b 2c 60 ad 3b 2a ad aa 3b 15 1b c7 3b
       0.0059768613 0.0052910056 0.005208631 0.0060762265
0001c0 09 62 b9 3b dd 27 a0 3b e2 ac b7 3b 65 9f a3 3b
       0.0056574387 0.0048875646 0.005605326 0.0049933665
0001d0 00 b4 b1 3b f8 0b a3 3b d2 58 a5 3b d9 d3 84 3b
       0.005423069 0.004975792 0.0050459886 0.0040535745
0001e0 c0 83 3c 3b bc f3 af 3b 9b 62 f3 3a b7 ab b0 3b
       0.0028765053 0.0053696316 0.0018568815 0.0053915638
0001f0 40 92 a4 3b a6 5e ee 3b e8 f0 ba 3b 55 57 a9 3b
       0.005022317 0.0072744666 0.005704988 0.0051678815

lstm.bias_hh_l0 f4 [128]
000000 f6 f1 35 3b d8 00 d1 3a 0c 00 dc ba 07 da 17 3b
       0.0027762628 0.0015945686 -0.0016784682 0.0023170726
000010 a2 05 13 3b f2 39 26 3b 69 85 92 3b 6b e6 18 3b
       0.0022433777 0.0025364128 0.00447147 0.00233307
000020 81 41 0b 3b ea 3f 1e 3b b3 53 06 3b 1a 60 08 3b
       0.002124876 0.0024146982 0.0020496666 0.0020809234
000030 96 ac 93 3b c3 83 2a 3b e7 b0 11 3b 8b f5 3e 3b
       0.004506658 0.0026018478 0.0022230686 0.0029138054
000040 fd 03 27 3b 88 2c c6 3a cb 49 0d ba b1 67 0a 3b
       0.0025484555 0.0015119473 -0.0005389719 0.0021118934
000050 01 c9 20 3b 39 65 13 3b e2 0a 08 3b 0a 86 1e 3b
       0.002453387 0.0022490753 0.002075844 0.002418878
000060 51 f2 29 3b e5 2e 24 3b e6 5d 1b 3b 1d 5f 1e 3b
       0.0025931785 0.0025052365 0.002370709 0.0024165579
000070 d6 97 f8 3a 50 a3 1b 3b 70 8c 32 3b f2 7a 02 3b
       0.0018966149 0.0023748465 0.0027244352 0.0019909707
000080 40 78 8c 3b b7 48 09 3b a7 1e 95 3b e0 03 8b 3b
       0.004286796 0.0020947882 0.004550773 0.0042424053
000090 e3 74 8a 3b 06 c5 97 3b 58 a5 8d 3b 80 94 86 3b
       0.0042253598 0.0046316413 0.004322689 0.004107058
0000a0 43 6d 47 3b 66 af 88 3b 3e 87 81 3b b5 9f 12 3a
       0.0030430115 0.0041712997 0.0039528897 0.0005593256
0000b0 2d 2a 99 3b 79 82 97 3b 05 75 8a 3b 0e a8 90 3b
       0.004674217 0.004623708 0.0042253756 0.004414565
0000c0 56 de 90 3b 02 e8 ad 3b ca 02 7a 3b 6f 0e 83 3b
       0.0044210358 0.0053071985 0.0038148635 0.0039995234
0000d0 c5 48 87 3b 1e 67 80 3b 76 dc 7f 3b 9f 75 83 3b
       0.004128548 0.0039185425 0.0039041317 0.0040118243
0000e0 b4 19 8d 3b 3a 5a 8c 3b 71 5c 60 3b 27 f0 89 3b
       0.0043060426 0.004283217 0.0034234787 0.0042095366
0000f0 c1 cf 7c 3b f7 65 82 3b 9b 4b 96 3b c8 1b 82 3b
       0.003857598 0.0039794403 0.0045866496 0.003970597
000100 7d b4 63 3d d1 d3 ef 3c 3c ce 5a bd 24 16 6f ba
       0.05559205 0.029275807 -0.053419337 -0.00091204257
000110 0a 5e c9 3c 34 d5 48 bd 5e 92 a3 bb c6 eb 2d bc
       0.024580974 -0.04903145 -0.0049918136 -0.010615295
000120 01 d8 36 bc 8f 96 54 bc 6b 9f bb bc b0 29 82 bb
       -0.011159898 -0.012975349 -0.022903165 -0.0039722547
000130 93 1c 75 3c 7f 05 15 3d d4 ba 32 3c c4 9a fd 3c
       0.014960426 0.036382195 0.010908801 0.030957587
000140 c4 63 9c 3c c1 fb 98 bc e2 b6 99 bc 9b c9 1e 3c
       0.01909054 -0.018674733 -0.018763963 0.009691621
000150 01 9c 87 3c 93 24 15 bc 8a 08 e1 39 4c 47 57 bc
       0.01655388 -0.009102958 0.00042921706 -0.013139557
000160 83 a5 e2 3c 06 0c 64 bc 1a 78 63 bc 5f 51 71 3d
       0.027666813 -0.013918882 -0.013883615 0.058915492
000170 35 df c4 ba 68 fe af bb ee fa 6c bd d6 e7 c0 bb
       -0.0015020134 -0.0053709038 -0.057856493 -0.005887012
000180 e9 82 d1 3b a9 44 95 3b 3d dd af 3b 7a 8c b5 3b
       0.0063937795 0.004555304 0.00536695 0.0055404278
000190 99 cb a9 3b f8 ae b8 3b d0 04 be 3b 63 8c aa 3b
       0.0051817414 0.0056360923 0.0057989135 0.0052047237
0001a0 02 9e 4c 3a 66 d8 ae 3b 9c 48 a8 3b 7c 30 af 3b
       0.00078055274 0.0053358553 0.005135609 0.005346356
0001b0 b4 1f c5 3b e6 c3 af 3b 09 f8 af 3b 72 a2 c7 3b
       0.006015742 0.005363929 0.0053701443 0.006092363
0001c0 4f ac b6 3b b9 93 b2 3b 44 fb b3 3b a7 fa a3 3b
       0.00557474 0.005449739 0.0054925997 0.0050042453
0001d0 2e e0 b1 3b 25 35 96 3b 03 80 a5 3b 19 56 b1 3b
       0.0054283356 0.004583972 0.0050506606 0.005411875
0001e0 ee 54 b0 3b 16 68 a8 3b ae 66 8b 3b f6 02 db 3b
       0.005381218 0.005139361 0.0042541837 0.0066837026
0001f0 aa 07 a4 3b db c0 ae 3b 9b d1 b9 3b f6 a1 a9 3b
       0.0050057964 0.0053330488 0.005670739 0.005176778

lstm.weight_ih_l1 f4 [128, 32]
000000 6b 7e 81 bb d7 f0 29 bc 3d 66 31 bc 84 a8 2c bc
       -0.003951838 -0.010372362 -0.010827598 -0.010538224
000010 46 bb 2a 3c 81 5f 33 bc 1b 8d 38 bc 90 9f 2c bc
       0.010420626 -0.010948063 -0.011264111 -0.01053609
000020 6f 69 2a bc 7d 15 2e bc 0c 3a 1b bc 86 57 30 3c
       -0.010401114 -0.01062524 -0.009474289 0.010763055
000030 17 6a 33 3c f9 34 2a bc ef e5 2c 3c 08 7b 11 3c
       0.010950587 -0.010388606 0.010552867 0.008879431
000040 c1 03 35 3c ca d2 2d 3c 32 48 30 bc d0 73 e5 3b
       0.011048258 0.010609338 -0.0107594 0.0070023313
000050 ce c9 2a 3c f3 49 24 bc c5 99 2d 3c 91 e7 2e bc
       0.010424091 -0.0100273965 0.010595744 -0.010675327
000060 2c 83 2b 3c 6f 9e 2d bc 8c 04 01 bc 43 b9 2e 3c
       0.0104682855 -0.010596856 -0.007874619 0.010664287
000070 8b 0a 2c bc 03 2f 27 3c df 5a 19 bc d6 01 75 bc
       -0.0105005605 0.01020408 -0.009360044 -0.014954051
000080 63 9d 12 3a c6 2c 0a bc bc 76 0b bc 85 26 0a bc
       0.00055929105 -0.008433526 -0.008512195 -0.008432035
000090 85 c7 06 3c d8 d1 0d bc c1 1d c1 bb e0 62 0a bc
       0.00822628 -0.008655988 -0.0058934395 -0.008446425
0000a0 e0 47 09 bc 23 f1 0a bc a5 b7 16 bc 48 88 09 3c
       -0.008378953 -0.008480343 -0.009199058 0.008394308
0000b0 3a 30 0d 3c 92 a7 09 bc 9c db 0a 3c 38 0d 08 3c
       0.008617455 -0.008401768 0.0084752105 0.008303933
0000c0 66 31 0d 3c 47 39 1b 3c 7a ac 0a bc 66 c3 01 3c
       0.008617735 0.009474105 -0.008463973 0.007920122
0000d0 86 e9 2f 3b c8 0d 06 bc 2b 95 09 3c c3 81 0b bc
       0.0026842072 -0.008181997 0.008397381 -0.008514824
0000e0 47 54 09 3c d8 a7 0a bc 2a fe 0f bc 42 5d 0b 3c
       0.00838191 -0.008462869 -0.008788625 0.008506121
0000f0 71 91 08 bc fa 5e 68 3a d0 b8 b8 bb c1 55 15 bc
       -0.008335457 0.000886425 -0.0056372657 -0.009114684
000100 b9 8a 25 3c 05 8c 1f bc cc 93 23 bc 83 54 20 bc
       0.010103875 -0.009737973 -0.009983968 -0.009785774
000110 68 71 1d 3c 7e 5e 25 bc 2c 27 22 bc 68 63 20 bc
       0.009609558 -0.0100933295 -0.009897035 -0.009789325
000120 52 bc 1e bc aa aa 20 bc c5 9c 21 bc 13 b3 1e 3c
       -0.009688454 -0.0098063145 -0.009864037 0.009686249
000130 7f ed 1d 3c b3 02 1f bc 3b cb 20 3c 8f 49 25 3c
       0.009639143 -0.009705233 0.009814079 0.0100883385
000140 e4 75 26 3c 92 94 a2 3c e6 ab 22 bc 37 dd 1d 3c
       0.010159943 0.019846234 -0.009928679 0.009635261
000150 01 04 1e 3c f4 cf 51 bb 39 d8 63 3b f0 0f 22 bc
       0.009644509 -0.003201482 0.003476633 -0.009891495
000160 3e e6 70 3b 3f 9f 20 bc 99 21 20 bc 06 c1 47 3b
       0.0036758329 -0.009803592 -0.009773635 0.0030480041
000170 46 cc 2a bc e7 58 28 3c eb 56 21 bc b8 68 38 bc
       -0.010424679 0.010275102 -0.009847383 -0.011255436
000180 47 7b 1e 3c 0e 7f 27 bc c7 b6 2a bc dc c9 32 bc
       0.009672946 -0.010223163 -0.010419554 -0.010912385
000190 ab 15 25 3c 0f fb 40 bc 03 79 29 bc b6 cf 26 bc
       0.010075967 -0.011778607 -0.010343793 -0.010181358
0001a0 67 fd 37 bc 7d 9f 27 bc fe bd 28 bc 65 cf 25 3c
       -0.011229849 -0.010230896 -0.010299204 0.0101202475
0001b0 1b ef 2b 3c ed cb 25 bc 6f 2d 27 3c c8 80 2c 3c
       0.010494019 -0.0101194205 0.010203703 0.010528751
0001c0 d8 db 2d 3c 77 97 29 3c 1e 65 29 bc f4 ca 23 3c
       0.010611497 0.010351053 -0.01033905 0.009997118
0001d0 c0 dd 24 3c 9e 6f 1f bc 2d c9 be 3b 6f c8 28 bc
       0.010062635 -0.009731201 0.005822322 -0.010301693
0001e0 58 e6 25 3c 08 84 27 bc fd 49 26 bc 78 9e 28 3c
       0.010125719 -0.01022435 -0.010149476 0.010291688
0001f0 62 92 17 bc cd 74 29 3c db f6 27 bc 5b 5b 54 bc
       -0.009251209 0.010342789 -0.010251726 -0.012961234
000200 70 6d 2b 3c 3c 6c 23 bc 72 72 a9 bb 8a 13 25 bc
       0.010463104 -0.009974536 -0.0051711136 -0.010075459
000210 6b 5d a5 3b 1e 81 2a bc f2 eb 9c bb df e5 45 bc
       0.0050465367 -0.0104067605 -0.004788869 -0.012078731
000220 c0 09 24 bc a7 26 26 bc ce d9 26 bc f7 52 30 3c
       -0.01001209 -0.010141051 -0.010183765 0.010761968
000230 02 b8 cc 3b 26 01 24 bc 72 65 25 3c ca b0 2a 3c
       0.0062475214 -0.010010039 0.010094987 0.010418126
000240 2e e5 2b 3c a6 88 4f 3c 7b 2b 27 bc 08 26 22 3c
       0.010491652 0.012666857 -0.010203238 0.009896763
000250 0c 6d 23 3c a5 f3 1d bc 23 41 26 3c be ea 26 bc
       0.009974729 -0.009640609 0.010147366 -0.010187803
000260 47 e2 23 3c e9 70 25 bc eb 4c 24 bc cb b9 26 3c
       0.010002679 -0.010097721 -0.010028104 0.010176132
000270 25 49 25 bc 7c 6b 27 3c b5 dd 25 bc 94 33 28 bc
       -0.01008824 0.010218497 -0.01012366 -0.010266203
000280 8f ca 2e 3c 31 69 20 bc fc 3e 18 bc ea 10 2f bc
       0.010668411 -0.009790705 -0.00929236 -0.010685185
000290 82 83 26 3c 78 fe 2d bc 1b a5 2e bc 39 84 27 bc
       0.01016319 -0.010619752 -0.010659481 -0.010224395
0002a0 04 cb 26 bc da 75 29 bc 47 df 29 bc 5e 36 27 3c
       -0.010180239 -0.010343039 -0.010368175 0.010205833
0002b0 cf 9f 2d 3c 1b f2 26 bc 9b a9 28 3c 9b 1f 2f 3c
       0.010597183 -0.010189558 0.010294343 0.010688688
0002c0 59 90 2f 3c 76 b0 2a 3c 97 99 2a bc 40 3f 25 3c
       0.0107155675 0.010418048 -0.010412595 0.010085881
0002d0 fa 1a 21 3c 65 37 0d bc ad 92 29 3c 8e dc 2c bc
       0.009833092 -0.008619164 0.010349912 -0.010550631
0002e0 12 c6 0f 3c be a0 2e bc 5f 13 28 bc c7 07 2a 3c
       0.008775251 -0.010658441 -0.010258525 0.010377831
0002f0 89 be 28 bc 58 17 22 3c 08 73 91 bb 72 d1 49 bc
       -0.010299333 0.009893261 -0.0044387616 -0.012318002
000300 bf a9 3f 3c 53 28 2a bc ba c7 2f bc 40 19 2b bc
       0.0116981855 -0.010385591 -0.010728771 -0.010443032
000310 8d 11 29 3c 7b 98 28 bc 4a ac 2e bc e5 41 2b bc
       0.010319126 -0.01029026 -0.010661194 -0.010452722
000320 49 a1 29 bc 40 a2 2c bc 4b f5 2c bc 04 dc 29 3c
       -0.010353395 -0.01053673 -0.010556529 0.010367397
000330 a5 35 34 3c da 3a 2a bc 0f a4 2b 3c ef 8b 2d 3c
       0.010999118 -0.010390008 0.010476126 0.010592445
000340 9d 5e 33 3c e9 65 2d 3c 42 af 2e bc 0d d3 26 3c
       0.0109478505 0.010583379 -0.010661902 0.010182154
000350 81 e8 29 3c 61 48 23 bc b4 4e 2c 3c 40 7a 2d bc
       0.010370375 -0.009965987 0.010516811 -0.010588229
000360 68 24 2b 3c cf 2c 2c bc db 16 2b bc ef 1a 2d 3c
       0.010445692 -0.01050873 -0.010442461 0.0105655035
000370 bd 8b 00 bc e8 0c 2e 3c 89 72 2c bc 56 50 3d bc
       -0.007845816 0.010623194 -0.010525354 -0.011554798
000380 3b 78 27 3c b6 63 1e bc 9a a3 24 bc d9 71 1b bc
       0.010221536 -0.009667328 -0.010048771 -0.009487593
000390 25 36 9a 3b e0 a3 26 bc b6 c1 23 bc bc 2d 2f bc
       0.0047061616 -0.010170907 -0.009994915 -0.010692056
0003a0 7c 91 1e bc 5c f7 21 bc 6d 17 21 bc f5 d5 1e 3c
       -0.009678241 -0.009885635 -0.009832245 0.009694566
0003b0 2d b6 04 3c a0 dd 1f bc c8 e4 1c 3c 37 6f 27 3c
       0.008100075 -0.009757429 0.00957603 0.010219387
0003c0 e2 e9 27 3c dc 29 22 3c a7 f3 d5 bb 0e ec 1d 3c
       0.010248633 0.009897675 -0.0065292898 0.009638799
0003d0 c2 7d 1f 3c 62 ce 19 bc 7a 99 21 3c fb ac 22 bc
       0.009734573 -0.009387584 0.009863252 -0.009928937
0003e0 ee b5 20 3c 9d 85 21 bc d5 80 20 bc 2f 88 22 3c
       0.009809 -0.009858516 -0.009796341 0.009920164
0003f0 4f 8e 27 bc d5 1f 23 3c 94 b9 21 bc 67 bd 22 bc
       -0.0102268 0.00995632 -0.009870905 -0.009932852

lstm.weight_hh_l1 f4 [128, 32]
000000 4f ba 40 3c cc d6 c7 3b 7e 31 d6 3b 68 79 c0 ba
       0.011763169 0.006098604 0.0065366616 -0.0014684619
000010 c4 80 05 bc d6 55 1e bc 84 98 16 3c 71 87 09 bc
       -0.008148376 -0.00966402 0.009191636 -0.008394108
000020 3b de e4 bb d9 8b f7 3b 8d 4f 10 3c 8e c3 06 3c
       -0.0069844997 0.007554513 0.008808029 0.008225335
000030 4a fb fc bb 7e 28 01 bc 13 4c 0d 3c c9 9c 01 bc
       -0.0077203857 -0.007883189 0.008624095 -0.007910916
000040 dd 77 1c 3c 80 7f 0a 3c ca 7d 1f ba e7 7d 13 3c
       0.009550062 0.00845325 -0.00060841127 0.009002185
000050 c9 03 33 bc be 77 18 3c c6 f3 13 3c b5 6c 12 3c
       -0.010926195 0.0093058925 0.009030288 0.008937051
000060 20 05 08 bc cf 32 12 bc 14 b6 b6 bb 0c f2 0b bc
       -0.008302003 -0.0089232465 -0.0055759046 -0.008541595
000070 8e b1 dd 3b 79 7c 08 bc 92 f2 0a bc 47 ee 15 3c
       0.006765551 -0.008330458 -0.008480685 0.009151048
000080 6d 86 e2 3b d7 16 99 3b da 48 bf 3b 20 77 c8 bb
       0.0069129975 0.004671912 0.005837542 -0.0061177164
000090 1e 59 cb bb 8e e4 cd bb 75 df d9 3b c9 3e cd bb
       -0.006205692 -0.0062833494 0.0066489526 -0.006263588
0000a0 0e 18 ab bb b8 7d b2 3b 8e a6 d7 3b 07 4a 6c 3b
       -0.0052213734 0.0054471157 0.006581134 0.0036054866
0000b0 b0 aa c9 bb 1f 94 c6 bb 3a 70 d4 3b 86 8d bd bb
       -0.0061543807 -0.006060138 0.006483105 -0.005784693
0000c0 df 5b dc 3b 16 2f d0 3b 1e bb b9 bb 77 7a de 3b
       0.006724819 0.0063532693 -0.005668058 0.0067895013
0000d0 ca 00 e2 bb cd 06 02 3c b0 82 dc 3b d2 f4 d8 3b
       -0.0068970667 0.007936192 0.0067294464 0.0066209817
0000e0 dc 40 be bb 74 80 da bb 74 8e ab bb e7 0c d6 bb
       -0.0058060717 -0.006668145 -0.0052354876 -0.0065323
0000f0 d1 0f c4 3b e2 c0 87 bb 26 aa d0 bb 59 e5 94 3b
       0.005983331 -0.0041428665 -0.0063679395 0.004543942
000100 66 3d be 3a 11 66 ba 3b 7a 75 bd 3b b3 80 a0 bb
       0.0014514148 0.005688437 0.0057818266 -0.0048981546
000110 88 80 f0 bb 5c 75 c9 bb 3d 6b 00 3c 78 20 f1 bb
       -0.007339541 -0.0061480235 0.007838068 -0.007358607
000120 06 a0 cf bb 14 ea 93 3b 26 98 00 3c 71 4a a7 3b
       -0.006336215 0.0045139883 0.007848775 0.0051053097
000130 87 cd e3 bb f1 3a df bb 57 a9 fb 3b 4b 2e e7 bb
       -0.006951991 -0.0068124463 0.007680099 -0.007055079
000140 14 29 09 3c 98 ae f5 3b 1f 5b db bb 88 46 ef 3b
       0.00837161 0.00749762 -0.006694212 0.007302109
000150 f0 81 04 b9 aa a8 06 3c 7c 18 03 3c 2d 73 01 3c
       -0.00012636906 0.008218924 0.008001443 0.007900995
000160 14 eb f2 bb c3 3e 02 bc b1 7c a2 bb 7d 2d fa bb
       -0.0074132774 -0.007949534 -0.004958712 -0.007634817
000170 48 87 d1 3a c1 ef 8c bb 76 82 f6 bb df 1a 05 3c
       0.0015985752 -0.004301042 -0.0075228764 0.008124082
000180 ae 70 0f 3c 0b be c1 3b 6d 85 eb 3b 77 9b fd bb
       0.008754892 0.0059125475 0.0071875365 -0.00773948
000190 de 85 fa ba 14 2f 02 bc 7a 6f 06 3c 29 a8 00 bc
       -0.0019113382 -0.007945795 0.008205289 -0.0078525925
0001a0 cd 70 d8 bb e2 05 e8 3b 33 19 ea 3b c0 86 cc 3b
       -0.006605244 0.0070807794 0.0071441173 0.0062416494
0001b0 96 07 f7 bb 94 4d ca bb 0a c9 03 3c f9 a4 f1 bb
       -0.007538746 -0.006173799 0.008043537 -0.0073744026
0001c0 4c 39 14 3b 16 89 07 3c cc b9 08 bb 65 a2 0a 3c
       0.002261716 0.00827243 -0.0020862697 0.008461569
0001d0 59 a0 0d bc f1 0c 1a 3c f9 71 b5 3b 99 4f 08 3c
       -0.008644187 0.0094024995 0.0055372682 0.008319759
0001e0 5a ae fc bb 82 cf 07 bc 20 6e b0 bb 78 b3 03 bc
       -0.007711214 -0.00828922 -0.0053842217 -0.008038394
0001f0 f7 9b ef 3b b2 18 13 bc 7f dd 09 bc 7c ef 0b 3c
       0.0073122936 -0.008978056 -0.008414625 0.008540984
000200 3d b2 39 3c 3b af d1 3b 54 94 e7 3b ec 64 fb bb
       0.011333999 0.006399063 0.0070672426 -0.007671943
000210 8b e4 f9 bb 68 e8 00 bc c5 30 07 3c 3a a9 fc bb
       -0.0076261214 -0.00786791 0.008251374 -0.007710603
000220 10 3d d6 bb a4 23 e2 3b 9e 16 69 3b b1 9c d2 3b
       -0.006538041 0.0069012213 0.003556646 0.0064273705
000230 4a a3 f1 bb 82 d1 f0 bb de 03 03 3c 28 f6 e9 bb
       -0.007374202 -0.007349194 0.0079965275 -0.00713994
000240 70 72 0f 3c 79 59 fe 3b 16 de e0 bb 39 4f 09 3c
       0.008755311 0.007762131 -0.006862412 0.008380705
000250 15 5f 0c bc f5 4c 0b 3c b3 bd 08 3c 82 d7 06 3c
       -0.008567591 0.008502235 0.008346009 0.008230092
000260 18 ce f7 bb 2b 8f 06 bc 6d 3c af bb 8a 9c 02 bc
       -0.00756241 -0.008212845 -0.0053477795 -0.007971892
000270 44 5b ee 3b 7b 1d fb bb 43 90 00 bc b3 ab 09 3c
       0.0072740633 -0.0076634265 -0.007846895 0.008402753
000280 98 bf 10 3c 3b 3d c0 3b 1b 55 ee 3b c7 50 00 bc
       0.008834742 0.0058666742 0.007273329 -0.007831759
000290 22 03 ff bb 1a ab 03 bc cc 34 0a 3c 74 ac dd bb
       -0.007782356 -0.008036399 0.008435439 -0.006764943
0002a0 15 08 db bb b7 34 35 3b 97 d0 2a 3b b6 20 ff 3b
       -0.006684313 0.0027649829 0.002606427 0.007785882
0002b0 44 8b f6 bb 2d 18 66 bb d5 08 04 3c be 06 07 bc
       -0.007523926 -0.0035109625 0.008058746 -0.008241354
0002c0 b4 a5 12 3c d4 c5 02 3c 73 5d e8 bb af 1c 33 3c
       0.0089506395 0.007981736 -0.007091218 0.010932132
0002d0 ad 8e 0e bc 74 54 2c 3c 7e ba 14 3c 1b a1 08 3c
       -0.008701009 0.010518182 0.009077666 0.008339192
0002e0 26 e2 00 bc b3 a1 09 bc d4 8b b2 bb e1 7e 04 bc
       -0.007866418 -0.0084003685 -0.0054487977 -0.008086891
0002f0 ab 6c f3 3b a2 0e 02 bc 22 71 03 bc 74 d3 0c 3c
       0.0074287257 -0.007938059 -0.008022578 0.008595336
000300 ea 4b 11 3c 7c 0c c8 3b 49 e1 f6 3b 0f 1c 18 bc
       0.008868197 0.006105004 0.0075341803 -0.009284033
000310 6e 3b 04 bc 83 ab 08 bc bc 48 10 3c e9 da 07 bc
       -0.00807081 -0.008341673 0.008806404 -0.008291938
000320 13 e1 9c bb 54 8e 3a 3b 27 d4 17 3c 7e 57 df 3b
       -0.004787573 0.0028466182 0.00926689 0.00681585
000330 21 49 9c bb 7a ab fd bb 85 52 0b 3c 8a ad ff bb
       -0.00476946 -0.007741389 0.008503561 -0.00780267
000340 1c c9 12 3c 9d 3b 07 3c 14 85 f1 bb ca da 11 3c
       0.008959081 0.008253959 -0.0073706005 0.008902261
000350 54 bd 2c bc 0c 70 14 3c 83 da 0d 3c 1a 03 10 3c
       -0.010543186 0.009059917 0.008658054 0.008789802
000360 fe 95 13 bc 14 84 05 bc 9d b9 ba bb d9 5e 09 bc
       -0.009007929 -0.008149166 -0.0056983964 -0.00838443
000370 88 84 fb 3b cc 30 06 bc 02 c1 08 bc 21 de 12 3c
       0.007675711 -0.008190345 -0.008346798 0.0089640925
000380 04 ca 0d 3c 57 fd bc 3b 98 3a e7 3b 26 5d fa bb
       0.008654121 0.005767505 0.0070565455 -0.0076404987
000390 ed 74 f7 bb 4e 5c f5 bb 35 89 05 3c 24 03 ff bb
       -0.0075517804 -0.00748781 0.0081503885 -0.007782357
0003a0 3b 5d fc bb 6c 90 e2 3b e5 38 05 3c a8 5d c7 3b
       -0.0077015436 0.006914189 0.0081312405 0.0060841627
0003b0 7d b5 ea bb 75 0b ee bb 36 a2 02 3c a9 c8 4b bb
       -0.0071627484 -0.0072645494 0.007973244 -0.0031094945
0003c0 1c ab 0d 3c f5 84 fd 3b 6d 12 eb bb 22 bf 08 3c
       0.008646753 0.007736797 -0.0071738274 0.008346351
0003d0 28 31 0c bc 8a a4 0c 3c f2 d2 07 3c a0 d3 06 3c
       -0.008556642 0.008584151 0.008290039 0.008229166
0003e0 de 41 fa bb 5d be 06 bc ea c5 30 bb ad e8 ff bb
       -0.0076372465 -0.008224097 -0.0026973435 -0.0078097195
0003f0 9e 36 be 3b 08 36 fd bb d5 11 fd bb 63 09 0a 3c
       0.0058048507 -0.0077273883 -0.007723073 0.0084250895

lstm.bias_ih_l1 f4 [128]
000000 a7 c5 8a 3c 3f c3 33 3c b9 48 a3 bb ed ea 58 3c
       0.016939951 0.010971843 -0.0049830345 0.013239604
000010 2a e9 79 3c fe 19 0b 3c 72 a8 0a ba dc e6 99 3c
       0.015253345 0.008490084 -0.00052893825 0.01878684
000020 4f 6a 4a 3c 5c 75 57 3c 7c 25 97 3c 30 0f 48 3c
       0.0123544475 0.013150539 0.018450491 0.012210652
000030 f8 96 55 3c 10 48 64 3c 41 ee a5 3c 94 03 59 3c
       0.013036482 0.013933197 0.02025521 0.013245482
000040 26 b9 16 3d bd 35 84 3c d9 50 57 3c 91 4a c6 3c
       0.036797665 0.016138906 0.013141834 0.024205478
000050 40 78 76 3c f9 59 8e 3c cb a1 f0 3c 5a d6 f5 3c
       0.015043318 0.017376887 0.029374024 0.030009437
000060 3a d7 8b 3c 3a b9 8c 3c a2 e6 11 3c d8 31 76 3c
       0.017070401 0.017178167 0.008905085 0.015026532
000070 aa 61 61 3c 95 2b 57 3c a2 1b 98 3c 64 e4 bc bb
       0.013756195 0.013132949 0.018567864 -0.005764531
000080 df ff dd 3c f2 11 33 ba f2 fb af 3c e2 9c f1 3c
       0.027099548 -0.0006830982 0.021482442 0.029493753
000090 a9 78 bf 3c b4 0d dc 3c ce ef 11 3d 29 e2 e2 3c
       0.023372965 0.026862003 0.035629086 0.027695732
0000a0 4d e9 a6 3c 70 1b 9f 3c ee 38 99 3b d9 51 8d 3c
       0.020374918 0.019422263 0.004675976 0.017250942
0000b0 a1 ea b7 3c 76 72 b5 3c 95 15 f2 3c ac 2f b1 3c
       0.022450747 0.022149306 0.029551307 0.021629177
0000c0 4c 03 07 3d 32 1d 08 3d 66 e7 a1 3c 91 ac d6 3c
       0.03296213 0.033230968 0.01976366 0.026205333
0000d0 e1 b0 20 3d 60 9b c0 3b 01 ac 1b 3d 7c f8 1e 3d
       0.039231185 0.005877897 0.038005833 0.038811192
0000e0 c1 f6 f6 3c a3 16 9c 3c d9 0a 3e 3c b3 0c f0 3c
       0.030146958 0.019053763 0.011599266 0.02930293
0000f0 17 fd b0 3c 8e 6c 29 3c aa 02 c0 3c 30 45 a9 3b
       0.021605058 0.010340823 0.02343877 0.0051657185
000100 76 98 ae 3c 50 a0 f4 bc 5c 2d 33 3c da 60 f4 bb
       0.021312933 -0.0298616 0.0109361075 -0.0074578347
000110 06 12 b7 bd 6d 2f 77 bc 1a 25 7e 3d ed bc b7 bd
       -0.089389846 -0.015086991 0.0620471 -0.089715816
000120 22 97 8c 3c ec 62 d8 3c 4e b7 c1 3b 4b b5 82 3d
       0.01716191 0.026414357 0.005911744 0.06382235
000130 e1 0c 0b 3a 03 c3 d3 bb b8 89 cb 3d 46 86 4e bd
       0.00053043483 -0.006462456 0.09938377 -0.050421022
000140 81 42 f4 3d 0d 0b f7 3d 61 2e 96 bd 87 ca 86 bc
       0.11926747 0.12062655 -0.07333065 -0.016453994
000150 ca 63 66 bd dd 29 f6 3d e9 95 bd 3d 04 be 04 3e
       -0.05624751 0.120197035 0.09257109 0.1296311
000160 4a 9d 19 bc a8 37 e9 bc 8b 23 ce bc 00 cd 64 3d
       -0.00937588 -0.028468922 -0.025163433 0.055859566
000170 43 d0 6c 3d ee ae 03 bd 73 60 b4 bd a3 30 bb 3c
       0.0578158 -0.032149248 -0.08807459 0.02285034
000180 44 aa 39 3d 24 70 84 3c 79 1d 11 3d 8d 17 71 3c
       0.045328394 0.016166754 0.035428498 0.014715088
000190 d3 5a e9 3c d7 90 33 3d 5b 2f 08 3b ce ca ef 3c
       0.028485691 0.043839302 0.002078018 0.02927151
0001a0 30 f2 a1 3c 61 72 b2 3c 3c bc 04 3d 2b 38 c0 3b
       0.019768804 0.021783056 0.032406077 0.0058660707
0001b0 f5 b1 0f 3d 93 56 bc 3c aa 60 da 3b 9b 56 c5 3c
       0.035081822 0.0229905 0.0066643553 0.024089148
0001c0 90 5b 94 3c 70 a3 0c 3d 50 d7 b0 3c e2 b9 14 3d
       0.018110067 0.034335554 0.021587044 0.036310084
0001d0 20 1f 5d 3a f2 08 82 3d c0 e0 1f 3d 7b 5e 0a 3d
       0.0008435119 0.063493624 0.039032698 0.03378151
0001e0 5e c0 06 3d 61 fa 09 3c bd 90 1b 3c 0b dc 1e 3d
       0.0328983 0.008421511 0.0094949575 0.038784068
0001f0 34 c2 c7 3c f0 27 e8 3c a0 79 25 3d 07 d3 fc 3c
       0.024384595 0.028339356 0.040399194 0.030862344

lstm.bias_hh_l1 f4 [128]
000000 55 8d 03 3d a0 b0 34 3c 1c 54 fd 3c 1a 9c 7f 3c
       0.032117207 0.011028439 0.030923896 0.015601182
000010 60 43 7d 3c 03 e4 90 3c 1b 06 90 3c dc 1c 7b 3c
       0.015457958 0.01768685 0.017581036 0.015326705
000020 9b c0 4b 3c 15 4d 57 3c 93 b3 27 3c 9e 51 47 3c
       0.012436057 0.013140936 0.010235685 0.012165455
000030 67 4c 56 3c 27 88 3d 3c 8a 32 86 3c ba 32 78 3c
       0.013079739 0.011568106 0.01638152 0.015148813
000040 9a d7 6c 3c ef 41 e4 39 a5 c7 58 3c 6e 0d 95 b9
       0.0144557 0.00043536673 0.013231193 -0.000284295
000050 2e 05 c2 3c cf c5 ec 3c 00 09 68 3c ae 6c 91 3c
       0.02368411 0.028902916 0.014162302 0.017752018
000060 c7 ff 8b 3c 19 31 c8 3c 95 7e 24 3c fc d0 70 3c
       0.017089738 0.024437474 0.010039945 0.014698263
000070 dc 25 65 3c 1e 51 81 3c 1c 42 7b 3c 2a e7 17 3d
       0.013986077 0.01578575 0.015335586 0.03708569
000080 e7 14 3f 3d 2e 27 7c 3c 8d c6 ae 3c ba d8 ca 3c
       0.046650793 0.015390201 0.02133491 0.024761546
000090 7f 73 e6 3c 9b 34 ad 3c 02 96 b9 3c 52 b3 c2 3c
       0.028131245 0.021143248 0.022654537 0.023767147
0000a0 6e 44 96 3c a3 ab a2 3c 92 02 90 3c a5 48 8d 3c
       0.018343177 0.019857233 0.01757935 0.017246554
0000b0 a1 9c b6 3c da d6 b6 3c b1 0a ce 3c 03 a7 a5 3c
       0.022291483 0.022319246 0.025151582 0.020221239
0000c0 e6 41 6f 3d 74 d2 c6 3c 1f 9d 37 3c bc ce 5c 3d
       0.058412455 0.024270274 0.011206894 0.053908095
0000d0 60 19 38 3d 7b 69 44 3c 75 b3 2f 3d b8 92 c4 3c
       0.044946074 0.011988039 0.042895753 0.023995742
0000e0 d9 f0 d9 3c 72 fd 04 3d 35 19 54 3c 4e 02 43 3c
       0.026604103 0.032468267 0.012945463 0.011902405
0000f0 4e 3c bb 3c 1f 15 cf 3c 4d a0 cf 3c 9f d4 f8 3c
       0.022855904 0.025278626 0.025344992 0.030374823
000100 18 45 0f 3e cf ef d2 3c 38 8b 4a 3d 28 2b bb bd
       0.13991201 0.025749115 0.049449176 -0.09139091
000110 d8 87 03 bc 08 71 a6 bd da d3 02 3e 57 3d bc bd
       -0.008027993 -0.08127028 0.12776127 -0.09191387
000120 ea 6a 61 bd b5 bb 88 3d d5 3a 9b 3d 89 e2 69 3c
       -0.0550336 0.06676427 0.07579581 0.014275202
000130 32 19 81 3d 00 f7 23 bd a8 3b f7 3c bb 32 b1 bd
       0.06303634 -0.04003048 0.030179814 -0.08652254
000140 48 70 f7 3d e2 12 88 bd 46 fa 9f bc 90 85 0e 3e
       0.12081963 -0.066442266 -0.01952852 0.13918138
000150 9c 1c 04 be 5a 63 31 3d cf 46 25 3d d0 33 94 3d
       -0.12901539 0.04330764 0.04035073 0.07236445
000160 84 b3 ae bd 77 7f b0 bd f1 a9 cb bc 52 9e d1 bd
       -0.08530334 -0.08618062 -0.024861308 -0.10235275
000170 60 d7 2b bc 60 3b 85 bd be af f5 bc 3e 6a e8 3d
       -0.010488361 -0.065054655 -0.029991027 0.11348389
000180 85 38 58 3d 12 0b 85 3c 67 a8 f5 3a 4c 32 8e 3c
       0.052788276 0.01624063 0.0018742204 0.017357968
000190 2a 58 dc 3b bb d8 0c 3d 9e 24 cf 3c 9b 92 e9 3c
       0.006724377 0.034386378 0.025286015 0.02851229
0001a0 b5 20 a2 3c 3c d6 b2 3c cf 0a 75 3d 10 e3 97 3c
       0.019790987 0.02183067 0.05982476 0.018540889
0001b0 b1 83 f1 3b 6b 00 c7 3c fc 68 09 3d 6e 94 ca 3c
       0.007370435 0.024292191 0.033547387 0.02472898
0001c0 60 f6 6b 3d 5e 79 2e 3d 52 94 b0 3c f6 05 01 3d
       0.05760801 0.042596214 0.0215551 0.031499825
0001d0 0e 8d 4a 3d f2 64 01 3d 45 c8 bb 3c 88 ae 17 3d
       0.049450926 0.03159041 0.022922644 0.03703168
0001e0 49 ee dc 3c 48 fa 05 3d c7 bb 5b 3c 96 1e 02 3d
       0.026969092 0.03270939 0.013411469 0.03176745
0001f0 af d9 c3 3c f6 a9 f6 3c 8d 7d e4 3c 76 f7 40 3d
       0.02390751 0.03011034 0.027891899 0.047110997
